AdvancedML/Mnist_with_dropout.pt (torch, 941639 bytes, 8 tensors)

encoder_hidden_layer.weight f4 [128, 784]
0	0x3cdfaea1	0.02730495
1	0x3cf2d62c	0.02964314
2	0xbc091537	-0.008366874
3	0x3d066135	0.032807548
4	0xbc0034f7	-0.007825128
5	0x3bec271c	0.0072068106
6	0xbc8e709c	-0.01738768
7	0x3cabd277	0.02097438
8	0x3d00f507	0.031483676
9	0xbcd6a37e	-0.026201006
10	0x3cfe4d4e	0.031042721
11	0x3bdb07a5	0.006684261
12	0x3e02953f	0.12752245
13	0xbd9c73e1	-0.0763929
14	0xbe84b5cf	-0.2591996
15	0xbde6f3a4	-0.112769395
16	0x3ce18a08	0.027531639
17	0x3bacfa8a	0.00527889
18	0xbc889583	-0.016672855
19	0x3c1526e5	0.009103511
20	0xbc86cc63	-0.016454881
21	0xbb893e25	-0.0041883164
22	0xbc6da921	-0.0145056555
23	0x3cc2155a	0.023691822
24	0xbce6f27a	-0.028191794
25	0xbc86e0e3	-0.016464656
26	0xbc253ac5	-0.0100848125
27	0xbcafea47	-0.021474017
28	0x3b5ce913	0.003370826
29	0xbd107bbd	-0.035274256
30	0x3d041caa	0.0322539
31	0xbcf887b8	-0.030338153
32	0xbc5e43f4	-0.013566006
33	0xbd8b824e	-0.06811963
34	0xbecca181	-0.39966968
35	0x3d3552bf	0.044268366
36	0xbe5bc755	-0.21462758
37	0xbe7f88ed	-0.24954577
38	0xbeaeb6f4	-0.34123957
39	0xbec671df	-0.38758752
40	0xbe46a6ad	-0.1939952
41	0x3e414c66	0.188768
42	0x3d813577	0.06309026
43	0x3dbde79a	0.0927269
44	0xbbcd79e5	-0.0062706345
45	0xbe94b657	-0.29045364
46	0x3d36ea1e	0.044656865
47	0x3ea69902	0.3253861
48	0x3cc9414d	0.02456727
49	0xbe3d882b	-0.18508975
50	0xbdce04b8	-0.10059494
51	0xbf09276f	-0.53575796
52	0xbce068b3	-0.027393674
53	0x3cf010f5	0.02930496
54	0x3c288a1c	0.010286834
55	0x3c725fc5	0.014793341
56	0x3c390ed7	0.011295042
57	0xba22ddb7	-0.00062128477
58	0x3dcca645	0.09992651
59	0xbe9fbbbc	-0.31197917
60	0xbee1ed8e	-0.44126552
61	0xbe2939cd	-0.16525955
62	0xbec25795	-0.37957445
63	0xbf64cd5e	-0.89375865
64	0xbe5db748	-0.21651947
65	0xbdacc53a	-0.084360555
66	0x3cf9d963	0.030499166
67	0x3db4b8ad	0.088242866
68	0x3ec67a37	0.38765118
69	0x3e6b3bb2	0.2297199
70	0x3e57d8c3	0.21078782
71	0xbdc1b407	-0.094581656
72	0xbe0ba001	-0.13635255
73	0xbe684c14	-0.22685272
74	0xbdd2c8d4	-0.10292211
75	0x3d69f1ae	0.05711525
76	0x3dc1ebca	0.09468801
77	0x3ce8bfb8	0.028411731
78	0x3ee1c1e9	0.44093254
79	0x3e3333ec	0.17500275
80	0xbe99590b	-0.29950747
81	0xbee0c2c4	-0.43898594
82	0x3c9b3b65	0.01894922
83	0xbc6c8473	-0.014435875
84	0x3cb1918e	0.021675851
85	0xbc0adad3	-0.008475023
86	0x3e8ebeaa	0.2787984
87	0xbec42d01	-0.38315585
88	0xbf79b083	-0.9753496
89	0x3e469402	0.19392398
90	0x3e8a862b	0.27055487
91	0xbd752d3f	-0.059857603
92	0x3ceb969f	0.028758345
93	0xbe567933	-0.20944671
94	0xbe799bd8	-0.24375856
95	0xbd841b22	-0.06450488
96	0x3d350b2f	0.04420012
97	0xbe0d9cc8	-0.13829339
98	0x3e1456e1	0.14486267
99	0xbcf1ee4c	-0.029532574
100	0x3d130ced	0.035901
101	0x3c8b348a	0.016992826
102	0xbcbd10dc	-0.023079328
103	0xbd156049	-0.036468778
104	0xbd96f5df	-0.07371115
105	0xbe8c8b81	-0.27450183
106	0xbe4b235b	-0.19837706
107	0xbe96bfa8	-0.29443097
108	0xbda5b7ff	-0.08091735
109	0xbf3ac998	-0.7296386
110	0xbe98daf8	-0.2985456
111	0x3bdd09a5	0.0067455345
112	0x3c345145	0.011005704
113	0xbeb1277b	-0.34600434
114	0x3e9effbb	0.31054482
115	0xbd6f3334	-0.05839844
116	0x3e05edf7	0.13079058
117	0xbe8291d1	-0.25501874
118	0xbe2fc201	-0.1716385
119	0xbd81168f	-0.06303131
120	0xbdc79f1b	-0.09747144
121	0xbe3e843e	-0.18605134
122	0xbd51b250	-0.051195443
123	0xbde7fd8c	-0.11327657
124	0xbe1226eb	-0.14272659
125	0x3dbeee71	0.09322823
126	0x3baae769	0.0052155745
127	0xbbfd36f3	-0.0077274977
128	0xbb9fdca2	-0.0048785964
129	0x3daa5e61	0.083187826
130	0x3da22d6a	0.07918818
131	0xbdba3607	-0.09092336
132	0x3d4eadfc	0.050458893
133	0xbd8dbd1c	-0.069208354
134	0x3df52e36	0.11971705
135	0xbe865bd5	-0.26241937
136	0xbe0e124d	-0.13874169
137	0xbd275cf0	-0.040860116
138	0xbd073ea8	-0.033018738
139	0xbf0fe2a7	-0.5620522
140	0x3c63cf45	0.013904397
141	0xbcf01a4a	-0.02930941
142	0x3d90c3b0	0.070685744
143	0xbcb7d2eb	-0.02243944
144	0x3c202264	0.009773824
145	0xbc7adf5d	-0.015312043
146	0x3d63755c	0.055531844
147	0xbcd4cb05	-0.025975714
148	0xbbeb5641	-0.007181913
149	0xbd846502	-0.06464578
150	0x3d6763db	0.056491714
151	0xbcf54e44	-0.029944547
152	0x3cfeca58	0.031102344
153	0x3dafbefc	0.08581349
154	0x3ced2912	0.028950248
155	0x3b31552c	0.0027058823
156	0xbd9ab079	-0.07553191
157	0x3dffb7dc	0.1248624
158	0x3e06d945	0.13168819
159	0xbd914f2c	-0.07095179
160	0x3d399aeb	0.045313757
161	0xbb8bdc6d	-0.00426822
162	0x3cf1a34f	0.029496817
163	0x3bc5f843	0.006041558
164	0x3e485622	0.19564107
165	0xbd8c1b97	-0.068412
166	0xbe1699b4	-0.1470707
167	0xbeaecfa2	-0.34142786
168	0x3c0274f7	0.007962457
169	0xbdb64f57	-0.089018516
170	0xbf09a25c	-0.53763366
171	0x3e7eaf3d	0.24871536
172	0xbe1fc089	-0.1560079
173	0xbb0fdcb6	-0.0021951622
174	0xbe7b837c	-0.24561876
175	0xbd3beb5e	-0.04587876
176	0xbdff5896	-0.12468068
177	0xbd1a7e02	-0.037717827
178	0xbd6c57b7	-0.05770084
179	0xbe1212f2	-0.1426504
180	0x3e4ed73e	0.20199296
181	0xbc9c4dbf	-0.019080041
182	0x3be2896a	0.0069133537
183	0x3d4f4828	0.050605923
184	0x3d6e53fa	0.058185555
185	0x3d62a8bc	0.0553367
186	0xbc4732fd	-0.012158153
187	0x3d013d24	0.03155245
188	0x3e1d75b8	0.15376937
189	0x3d3e75e7	0.04649916
190	0x3d2e045f	0.042484637
191	0x3c0c951b	0.008580471
192	0x3d0fe455	0.035129864
193	0xbd014699	-0.031561468
194	0xbe2a3229	-0.16620697
195	0xbe511cb0	-0.204211
196	0x3b91dfe7	0.00445174
197	0xbef1be7e	-0.47215647
198	0x39e38510	0.00043395953
199	0xbe13adbb	-0.14421742
200	0xbc781f59	-0.015144193
201	0xbd2016c3	-0.039084207
202	0xbd8ffdf4	-0.070308596
203	0x3c0732c4	0.00825185
204	0x3d8fe5f0	0.07026279
205	0x3daa4ba2	0.08315207
206	0x3dcf2f05	0.1011639
207	0x3e5524f6	0.2081488
208	0x3e15c416	0.14625582
209	0x3cd25340	0.025674462
210	0xbc599dd3	-0.013282257
211	0xbc82fb7b	-0.015989056
212	0xbd80237d	-0.06256769
213	0xbd84834b	-0.06470355
214	0x3d0e8038	0.034790248
215	0x3d658161	0.05603159
216	0x3e3656e1	0.17806579
217	0x3df1ae78	0.118008554
218	0x3d5501d0	0.05200368
219	0xbdec377b	-0.115340196
220	0xbe7effe0	-0.24902296
221	0xbe4321a3	-0.190558
222	0x3cb2d997	0.02183227
223	0x3dd70947	0.104998164
224	0xbeefb599	-0.46818236
225	0xbead3868	-0.33832097
226	0xbf1c9a88	-0.61173296
227	0x3e33923b	0.17536251
228	0x3e2b814d	0.16748543
229	0x3d2b1005	0.041763324
230	0xbd4bd965	-0.04976787
231	0x3c69824b	0.014252256
232	0x3d0c5ed9	0.03427014
233	0x3c94dca0	0.018171608
234	0x3d6aea71	0.057352487
235	0x3dcd60a3	0.100281976
236	0x3d7ce2c0	0.061739683
237	0xbd871a08	-0.06596762
238	0xbe13dc3e	-0.14439484
239	0xbe3fd37c	-0.18733019
240	0xbe5be36b	-0.21473472
241	0xbc81db2f	-0.015851585
242	0xbdbc3ecd	-0.09191666
243	0x3e63ce05	0.22246559
244	0x3dfa7d97	0.122309856
245	0x3d873ffc	0.06604001
246	0xbd9fab10	-0.077962995
247	0xbd83e412	-0.06439985
248	0x3cef5e94	0.029219903
249	0x3d98aa72	0.07454385
250	0xbeb5c68d	-0.35503045
251	0xbde9deb7	-0.114194326
252	0x3c1a65cf	0.009423687
253	0xbe5dedc0	-0.21672726
254	0xbe0fb20e	-0.14032766
255	0xbe6890e4	-0.22711521

encoder_hidden_layer.bias f4 [128]
0	0xc0301c45	-2.7517254
1	0x3e488b18	0.1958431
2	0xc0419d89	-3.0252402
3	0x3f2387eb	0.6387927
4	0xbd240fe0	-0.040054202
5	0x3c64acbf	0.0139572015
6	0x3c9cc91d	0.019138867
7	0xbfa93303	-1.3218693
8	0xc06e6be3	-3.725335
9	0x3e67d4ee	0.2263982
10	0xbcc4cb7a	-0.024022806
11	0xbf06d254	-0.52664685
12	0x3b2cdd08	0.0026376862
13	0xbed0d61f	-0.4078836
14	0xc037c1fc	-2.8712149
15	0xbc62c025	-0.013839756
16	0xbd09a6ec	-0.033606455
17	0x3d97ca16	0.07411592
18	0x3b4e6daa	0.003149847
19	0xbfb38a68	-1.4026613
20	0xb92333a1	-0.00015564125
21	0xbf8d62cc	-1.1045775
22	0x3ce2bf30	0.027679056
23	0xbf3c5d05	-0.73579437
24	0xbcff2453	-0.03114525
25	0xbf59191a	-0.84803927
26	0xbd15598a	-0.036462344
27	0x3f36858c	0.71297526
28	0x3dff8328	0.12476188
29	0xbed59ee8	-0.41722798
30	0xbfa0fe33	-1.2577575
31	0x3e8d6746	0.27617854
32	0xbe4f2943	-0.20230584
33	0xbf8f88dc	-1.1213641
34	0xbfbe6ab8	-1.4876318
35	0x3ca31ff7	0.019912703
36	0xbf6625b6	-0.8990129
37	0xc04f92eb	-3.2433422
38	0xbf90708d	-1.1284348
39	0xbff4136c	-1.9068427
40	0xbfe96d67	-1.8236512
41	0xbc652f6b	-0.013988356
42	0xbf81a894	-1.0129571
43	0xbf6e8d91	-0.93184763
44	0xbf3ba771	-0.7330237
45	0xbf44d2ef	-0.7688436
46	0xbfa1b8cd	-1.2634522
47	0xbcb51129	-0.02210291
48	0xbfba5006	-1.4555671
49	0xbf63582c	-0.88806415
50	0xc069a4e0	-3.6506882
51	0x3f12578b	0.5716483
52	0xbd2c5db5	-0.042081553
53	0x3bac88c3	0.0052653267
54	0xbff0fd19	-1.8827239
55	0xbfbf026c	-1.4922614
56	0xbfc36108	-1.5263987
57	0xc00899b9	-2.1343825
58	0x3b96f9e0	0.004607424
59	0xbd0f0885	-0.034920234
60	0xbfa1377d	-1.2595059
61	0xbc81291d	-0.015766675
62	0xc01525ac	-2.3304243
63	0x3c2f0e17	0.010684512
64	0xc0830e07	-4.0954623
65	0xc022d1dd	-2.544059
66	0xbc97662e	-0.01848134
67	0xbe353e45	-0.17699535
68	0xbfc84365	-1.5645567
69	0xbfa162e3	-1.2608303
70	0xbff8529f	-1.9400214
71	0xc00a5e71	-2.1620142
72	0xbfed7b06	-1.8553169
73	0xbe9345f6	-0.28764313
74	0xbf582b02	-0.84440625
75	0xc0459be8	-3.0876408
76	0xbed1964c	-0.4093498
77	0xbf4a6da4	-0.7907355
78	0xc081d834	-4.057642
79	0x3c52fbb3	0.012877393
80	0xbfcf873b	-1.6213144
81	0xbf53f8c6	-0.82801473
82	0xbcf6e265	-0.03013725
83	0xbf45c150	-0.77248096
84	0xbba1a4c1	-0.0049329703
85	0xbebcb799	-0.36858824
86	0xbd3ef409	-0.04661945
87	0xbf3293d0	-0.69756794
88	0xc0838bda	-4.1108217
89	0xbcce5451	-0.02518669
90	0xbf1f2d05	-0.6217807
91	0xbe89e205	-0.26930252
92	0x3d43733b	0.047717314
93	0xbf802d1b	-1.0013765
94	0xbd1014b9	-0.035176013
95	0xbfd41fca	-1.6572201
96	0xbf49a37e	-0.78765094
97	0x3c5ff201	0.013668538
98	0xbcc32795	-0.023822585
99	0xbcda3cd8	-0.02664034
100	0xbefdf667	-0.49602053
101	0x3bff4c25	0.0077910596
102	0xbc5db907	-0.0135328835
103	0xbfc6a05b	-1.5517687
104	0xbfe9e710	-1.827364
105	0xbf46579b	-0.77477425
106	0x3f3240f4	0.6963036
107	0xbee53a86	-0.44771212
108	0x3c4fe397	0.012688539
109	0xbfcc855c	-1.5978198
110	0x3ccee839	0.025257217
111	0xbf9392d3	-1.1529182
112	0xbc4af8de	-0.012388436
113	0x3f00af98	0.50267935
114	0xc072ce21	-3.793831
115	0xbe41f5cd	-0.18941422
116	0xbd06a163	-0.032868754
117	0xbf976d77	-1.1830281
118	0xbfac5a88	-1.3465128
119	0x3b312a12	0.0027033133
120	0xbd4286f5	-0.047491986
121	0xbfa20269	-1.2656986
122	0x3c6d68b4	0.014490295
123	0xbcdb9f52	-0.026809368
124	0x3c876661	0.01652831
125	0xbd420064	-0.047363654
126	0xbc9d268b	-0.019183418
127	0xbca7c430	-0.020479292

encoder_output_layer.weight f4 [128, 128]
0	0x3fbe2b40	1.4856949
1	0x3e49053b	0.19630902
2	0x3da18e70	0.07888496
3	0xbd86a53c	-0.06574485
4	0x3cfa8402	0.030580524
5	0x3ccd7a24	0.025082655
6	0xbc8c670d	-0.017138982
7	0xbd7543e8	-0.059879214
8	0x3d103070	0.035202444
9	0xbce30189	-0.027710693
10	0xbda82c26	-0.08211546
11	0x3d988ed5	0.07449118
12	0xbb869927	-0.0041076127
13	0xbc46d80c	-0.0121364705
14	0x3c179181	0.009250999
15	0x3da6c861	0.08143688
16	0x3c460826	0.012086904
17	0xbc47aa68	-0.012186624
18	0xbd933333	-0.071875
19	0xbd26667d	-0.040625084
20	0xbcef9135	-0.029244045
21	0xbc8e6786	-0.017383348
22	0x3d3ea8c2	0.04654766
23	0x3d155fc4	0.036468282
24	0xbd830d6b	-0.06399044
25	0xbd67234c	-0.056430146
26	0x3bd44991	0.0064784964
27	0xbcb82a73	-0.022481179
28	0xbcc875e5	-0.024470279
29	0xbd175df5	-0.03695484
30	0xbcc18c8c	-0.023626588
31	0xbcda9e6a	-0.026686866
32	0xbc36c42e	-0.011155171
33	0xbc9b0bdd	-0.018926555
34	0x3c5239e3	0.012831184
35	0xbd866f0e	-0.06564151
36	0xbcff163e	-0.031138536
37	0x3e5928d0	0.21206975
38	0x3e0dfd8a	0.13866249
39	0xbce64bea	-0.02811237
40	0x3e0efe6e	0.13964245
41	0x3d0667e1	0.03281391
42	0x3c932ed4	0.017966665
43	0x3d77677a	0.060401417
44	0x3cc8eefe	0.024528023
45	0xbd277888	-0.040886432
46	0xbd2fbb80	-0.042903423
47	0xbc89aede	-0.016807016
48	0xbd3e5dde	-0.046476237
49	0x3e9a3ab8	0.30122924
50	0xbc9a38c1	-0.01882589
51	0x3a9e6e21	0.0012087264
52	0xbdb0cd08	-0.086328566
53	0x3c50dbc7	0.0127477115
54	0x3fde0123	1.7344097
55	0xbbe1ab27	-0.006886858
56	0xbb188656	-0.002327343
57	0x40d1f72d	6.561423
58	0xbd064f21	-0.032790307
59	0x3d6fad04	0.05851461
60	0xbc33d686	-0.010976439
61	0x3d842a3f	0.0645337
62	0x3d28d91d	0.04122268
63	0x3ae97df2	0.0017814024
64	0xbdafacec	-0.08577904
65	0x41213b02	10.076906
66	0xbcec9a32	-0.02888212
67	0x3d7e07a9	0.062019024
68	0xbd049941	-0.032372717
69	0x3c7a2795	0.015268226
70	0xbd7ac565	-0.061223406
71	0xbd1f9e32	-0.038969226
72	0x3d8b732f	0.06809079
73	0xbd0cc1b2	-0.03436441
74	0xbd3785da	-0.044805385
75	0x3ebc0563	0.3672286
76	0x3c3fd8ac	0.011709373
77	0x3d7a6262	0.06112898
78	0xbde5a3d3	-0.112128876
79	0x3ced30b0	0.02895388
80	0xbd35de58	-0.044401497
81	0xbcdb47b6	-0.026767593
82	0xbd871eb3	-0.06597652
83	0x3e18d2b0	0.14924121
84	0xba7a735c	-0.0009553933
85	0x3b20e6de	0.002455167
86	0x3c6c36da	0.0144173745
87	0xbc657858	-0.014005743
88	0xbe1ed60b	-0.15511338
89	0x3d45d00c	0.048294112
90	0xbc5c76f5	-0.013456096
91	0xbc76a190	-0.015053168
92	0x3bce8b3d	0.0063032196
93	0x3d6b18a0	0.05739653
94	0x3d5225ba	0.05130551
95	0x3f011444	0.5042155
96	0xbd855ac4	-0.06511453
97	0x3dab5f11	0.08367742
98	0x3ca45eb4	0.02006469
99	0xbd85b48e	-0.06528579
100	0x3e0409f0	0.12894416
101	0x3d631b44	0.055445924
102	0xbd680893	-0.056648802
103	0x3cbea58f	0.023272304
104	0x407427de	3.8149333
105	0xbcb6b427	-0.0223027
106	0x3d2c2cf8	0.042035073
107	0xbd8125b3	-0.06306019
108	0xbd53760d	-0.051626254
109	0xbd12f1b3	-0.035875034
110	0xbdab9b71	-0.083792575
111	0xbcc942a6	-0.024567913
112	0x3dbb2a60	0.09138942
113	0xbc315ba2	-0.01082507
114	0x3d355654	0.044271782
115	0xbc95c002	-0.018280033
116	0x3bebd036	0.0071964515
117	0x3d6223ea	0.05521003
118	0xbc1880e7	-0.009308076
119	0x3d012cf1	0.031537
120	0xbcc9c0c1	-0.024628045
121	0x3d8f1677	0.06986707
122	0x3cdab068	0.026695445
123	0x3d53fdd8	0.051755756
124	0x3c90b88b	0.017666122
125	0xbd20e499	-0.039280508
126	0x3bf4d6a4	0.007471876
127	0xbcee1969	-0.02906485
128	0x3c94b49b	0.018152526
129	0x3d016006	0.031585716
130	0xbc593ac6	-0.013258642
131	0x3d891f94	0.06695476
132	0xbd92c4b9	-0.07166428
133	0x3bd54213	0.006508121
134	0x3d284855	0.041084606
135	0xbd000094	-0.03125055
136	0x3b812e3a	0.003942278
137	0x3d4873a1	0.048938397
138	0x3c7627ae	0.015024109
139	0xbd9c8ddf	-0.07644247
140	0xbd2831b6	-0.041063033
141	0xbbb58f4e	-0.005540765
142	0x3c0de13c	0.008659657
143	0x3d83bdc7	0.064326815
144	0xbbbb4f21	-0.00571622
145	0x3c40ac3f	0.011759817
146	0x3dc56d1e	0.09639953
147	0xbfcd6cb9	-1.6048805
148	0x3d1dfb7c	0.038569912
149	0xbd943420	-0.072365046
150	0xbd657ac6	-0.05602529
151	0xbc37c186	-0.011215573
152	0xbab1c270	-0.0013561975
153	0x3d441705	0.047873516
154	0x3bfff5f5	0.007811303
155	0x3d296a4b	0.041361134
156	0x3daf7333	0.085668944
157	0x3db39c45	0.087700404
158	0xbc750023	-0.014953646
159	0x3d951f78	0.07281393
160	0xbe916d8f	-0.284039
161	0xbf0c4626	-0.5479454
162	0x3d1f1adf	0.038843986
163	0xbcd5c61d	-0.026095444
164	0x3d092974	0.0334868
165	0xbaf368b5	-0.0018570634
166	0x3d224e35	0.039625365
167	0xbd613b31	-0.05498809
168	0xbd0ddebf	-0.034636255
169	0xbd3613f7	-0.044452634
170	0x3d20dd4a	0.039273538
171	0x3d18f648	0.037344247
172	0xbb6325a5	-0.003465989
173	0x3d11d74c	0.035605714
174	0xbc8bbe85	-0.01705862
175	0x3cfb2b4a	0.03066029
176	0xc088d092	-4.2754602
177	0x3d9caa06	0.07649617
178	0x3dcb41c0	0.0992465
179	0x3c87a724	0.016559191
180	0xbd60855b	-0.054814678
181	0xbcf6d18e	-0.03012922
182	0xbd95c766	-0.07313423
183	0xbda008f0	-0.07814205
184	0xbe93ed72	-0.28892094
185	0xbca544a8	-0.02017434
186	0x3d915e1b	0.07098027
187	0xbd51a0ea	-0.05117885
188	0xbe8d06ce	-0.27544254
189	0xbcc8d344	-0.024514802
190	0x3d4e97d9	0.050437782
191	0xbd402e61	-0.04691923
192	0x3d59d67c	0.053183064
193	0xbd423f9f	-0.047423955
194	0xbd8ca5cd	-0.068675615
195	0x39607111	0.00021404425
196	0x3d6e22ac	0.058138534
197	0xbda0b37c	-0.07846734
198	0xbd200385	-0.039065856
199	0x3d483f71	0.048888627
200	0x3d8c312e	0.06845318
201	0xbe27360d	-0.16329212
202	0xbc23a644	-0.009988371
203	0x3cc7f565	0.024409005
204	0x3cdab693	0.026698386
205	0x3cdc492a	0.026890356
206	0x3d85e431	0.06537665
207	0x3bf39614	0.007433662
208	0xbd861207	-0.06546407
209	0xbd335da8	-0.04379049
210	0x3d2ee8d9	0.04270253
211	0x3c6ebaef	0.014570936
212	0xbd6a3a8e	-0.05718475
213	0x3d377a52	0.044794388
214	0x3daf199d	0.08549807
215	0xbc8c07b4	-0.017093517
216	0x3da593b1	0.080848105
217	0x3db5ffdd	0.08886693
218	0x3d538870	0.05164379
219	0x3c684dfa	0.014178747
220	0x3cdcfe8e	0.02697685
221	0x3d478788	0.048713237
222	0xbd1bd17b	-0.038041573
223	0x3d0f1131	0.034928504
224	0xbf068dac	-0.52559924
225	0xbd6e03bb	-0.058109026
226	0x3d9b05fb	0.075695
227	0xbcf2b924	-0.029629298
228	0x3d96df6f	0.07366835
229	0xbd0ff6ce	-0.03514748
230	0xbd828d63	-0.063746236
231	0xbd98798f	-0.074450605
232	0xbd117992	-0.03551633
233	0x3badd508	0.0053049363
234	0x3d3fedee	0.046857767
235	0x3d882c60	0.06649089
236	0x3d65e3be	0.056125395
237	0x3d7048ca	0.058663167
238	0x3d1532c3	0.036425363
239	0xbd11c975	-0.035592515
240	0xbd60a387	-0.05484345
241	0x3d889e03	0.06670763
242	0xbd848a86	-0.06471734
243	0xbd3cde7f	-0.046110626
244	0x3da21fac	0.07916197
245	0x3c89441d	0.016756112
246	0xbb54bb74	-0.0032460364
247	0x3abb1deb	0.0014275884
248	0xbc0697d9	-0.008214914
249	0x3a162485	0.0005727488
250	0x3da15cdc	0.0787904
251	0x3dc8bcf5	0.09801666
252	0xbd050dd2	-0.032483883
253	0xbd483dd1	-0.048887078
254	0x3c9ce2ed	0.019151175
255	0x3d29e9ad	0.041482616

encoder_output_layer.bias f4 [128]
0	0x3e646c6f	0.22306989
1	0xc00eb619	-2.2298644
2	0xbfdcd780	-1.7253265
3	0xbf3ae028	-0.72998285
4	0x3fae9df0	1.3641949
5	0xbdfdbd84	-0.12389663
6	0xbf536fb8	-0.82592344
7	0xc004539f	-2.0676038
8	0xbfeeb52c	-1.8649039
9	0xbefb86a5	-0.49126163
10	0xbd1c2adb	-0.038126808
11	0x3fc2d6d6	1.5221813
12	0x40366aa0	2.8502579
13	0x3fb45c66	1.4090698
14	0x3f4ec137	0.8076357
15	0xbf4d44ce	-0.8018311
16	0x3daa6c8f	0.08321487
17	0x3fc3ab50	1.5286655
18	0x3f4458fa	0.7669827
19	0xbfb6a871	-1.4270154
20	0xbfba6474	-1.4561906
21	0x3fba52c0	1.4556503
22	0x3e6d66da	0.23183766
23	0xbfa13e46	-1.2597129
24	0xc005851e	-2.0862498
25	0xbf9aad69	-1.208417
26	0xc028db2d	-2.6383774
27	0xbff107c4	-1.8830495
28	0x3ec7f3f4	0.3905331
29	0x403e88f3	2.9771087
30	0xbf79248b	-0.97321385
31	0xbee07e97	-0.4384658
32	0xbfc964da	-1.5733902
33	0x3ff48bee	1.9105203
34	0x3f84ad66	1.0365417
35	0xbfc35dfe	-1.5263059
36	0xc01a7ace	-2.4137454
37	0xc07b29d6	-3.9244285
38	0x3f8e874b	1.1135038
39	0x3f3a9601	0.7288514
40	0xbf3c777d	-0.73619825
41	0xc015ae90	-2.3387794
42	0xbf90eca0	-1.1322212
43	0xbf3ed898	-0.74549246
44	0xbff38dcd	-1.9027649
45	0x3fb0d6b9	1.3815528
46	0xbf8eeed6	-1.1166637
47	0x3f8a8522	1.0821879
48	0x3f2e6fcc	0.6813934
49	0xbfbf54d3	-1.4947761
50	0x3f8a3bd4	1.0799508
51	0xbff1e90e	-1.8899248
52	0x3fa0bb37	1.2557133
53	0xc046b286	-3.1046462
54	0x40026bef	2.0378377
55	0xbed3259c	-0.4123963
56	0xbf974fd8	-1.1821241
57	0xbff1b819	-1.8884307
58	0x3f92653b	1.1437143
59	0xbfcb3fa5	-1.5878798
60	0xbfc307d3	-1.5236763
61	0xbf996be5	-1.1986052
62	0x3f851c9c	1.0399356
63	0xbfc59a15	-1.5437647
64	0x3f6812a0	0.9065342
65	0x3f639fc1	0.8891564
66	0xbecf2001	-0.40454105
67	0xbedb15e0	-0.42790127
68	0xbe5fd8c5	-0.21860035
69	0xbfac7199	-1.3472167
70	0xbffadb5f	-1.9598197
71	0x3e576527	0.2103468
72	0xbe928c7b	-0.28622803
73	0x4030952f	2.7591054
74	0xbf4d8f1c	-0.8029649
75	0x3f2ce560	0.675375
76	0x3f9e3f6a	1.2363102
77	0xc02751fc	-2.614379
78	0x3ffefeb4	1.9921479
79	0xc007e829	-2.123545
80	0xbfc472fd	-1.5347592
81	0x3f43b141	0.76442343
82	0x3f1924bf	0.59821695
83	0x3f3744a4	0.7158911
84	0x3d65aa72	0.056070752
85	0xbe530e0c	-0.20610827
86	0xbf635cd6	-0.8881353
87	0xbb5cceb2	-0.0033692536
88	0xbf90f787	-1.1325539
89	0xbfa850d0	-1.3149662
90	0x3eeae990	0.4588132
91	0xbfe06c50	-1.7533054
92	0x40262e0b	2.5965602
93	0x3f8ec1d3	1.11529
94	0x3f60d824	0.87829804
95	0xbfeba7a1	-1.8410531
96	0xbdfa9c95	-0.12236897
97	0xbedbc812	-0.4292608
98	0x3f098f9b	0.5373475
99	0x4062d484	3.544221
100	0xbe7402e3	-0.23829226
101	0x3fab370f	1.3376178
102	0xbf49bf2a	-0.7880732
103	0xbef0f7ae	-0.47063965
104	0xbf566ea6	-0.83762586
105	0xbfda3230	-1.7046566
106	0xbecb3489	-0.3968852
107	0xbdc1e5c3	-0.09467652
108	0xbfa6155e	-1.2975271
109	0xbf0b3f5f	-0.5439357
110	0x3e69d983	0.2283688
111	0x3f7089e2	0.9396039
112	0xbfa2b997	-1.2712888
113	0xbf5d2feb	-0.8640124
114	0x3fdf455c	1.7443042
115	0xc01b12b3	-2.4230163
116	0x3fef985f	1.8718375
117	0xc0214861	-2.5200427
118	0xbfe75ef7	-1.8075856
119	0xbf6ef479	-0.93341786
120	0x3ebf653b	0.3738192
121	0xbe6baab5	-0.23014338
122	0x3ef1130c	0.47084844
123	0x3f13e373	0.57768935
124	0x3fd6629f	1.6748847
125	0x3fb16c92	1.3861258
126	0xbfbb3c4e	-1.4627779
127	0xbe396a6c	-0.18107003

decoder_hidden_layer.weight f4 [128, 128]
0	0x3efbbf8c	0.49169576
1	0xbe9bf08c	-0.3045696
2	0xbe946151	-0.28980497
3	0x3e9fc7a7	0.3120701
4	0x3e99cd9a	0.30039674
5	0x3d78a20f	0.060701426
6	0xbe95a899	-0.29230192
7	0x3d5c0c74	0.053722814
8	0x3d900b1b	0.07033368
9	0xbebdb985	-0.37055603
10	0x3c25dafb	0.01012301
11	0xbdcb6541	-0.09931422
12	0x3aec1fbb	0.0018014828
13	0x3eb72aae	0.3577475
14	0xbeaad6a8	-0.33366895
15	0x3e8770c2	0.26453215
16	0xbe7e831f	-0.24854706
17	0x3e22d16c	0.159002
18	0x3f0afaed	0.5428913
19	0xbe4b3bac	-0.19846982
20	0x3d95ce45	0.073147334
21	0xbe88900b	-0.26672396
22	0x3d8d5ded	0.069026805
23	0xbdcb939f	-0.09940266
24	0xbd521b0d	-0.05129533
25	0xbff42d76	-1.9076374
26	0x3eb3d806	0.3512575
27	0x3e3e7314	0.18598586
28	0xbe00621c	-0.12537426
29	0xbdf889d3	-0.12135663
30	0x3cee199a	0.029064942
31	0x3cb9356b	0.02260848
32	0x3e18ca3d	0.14920898
33	0xbd19776a	-0.037467398
34	0x3d8dd42f	0.069252364
35	0xbe15f129	-0.14642777
36	0x3ea1dcdb	0.31613812
37	0xbedc4630	-0.430223
38	0x3dc7ea61	0.09761501
39	0x3db348f6	0.087541506
40	0xbe68dd17	-0.22740589
41	0x3d73d924	0.059533253
42	0xbc7c2d6e	-0.015391691
43	0xbcc6b931	-0.024258228
44	0xbe1e12a0	-0.15436792
45	0x3dc0dcae	0.09417091
46	0x3e98bb51	0.2983041
47	0xbe99241c	-0.29910362
48	0x3e915653	0.28386173
49	0x3d4d4e4b	0.050123494
50	0xbe04c102	-0.12964252
51	0xbd9a55f8	-0.075359285
52	0x3efbeef2	0.49205738
53	0xbd078c79	-0.03309295
54	0xbe6184ab	-0.22023265
55	0x3e776f74	0.2416361
56	0x3e3952dd	0.18098016
57	0xbe03cf48	-0.1287204
58	0x3d3736ac	0.044729874
59	0xbc640242	-0.013916554
60	0xbe07bffb	-0.13256828
61	0xbdd5d97d	-0.10441873
62	0x3e473181	0.19452478
63	0xbcbbb0a0	-0.02291137
64	0x3e67d747	0.22640716
65	0xbe92581c	-0.28582847
66	0x3c6be3b7	0.014397553
67	0x3e0f382e	0.13986275
68	0x3df94723	0.121717714
69	0x3f0da045	0.55322677
70	0x3af3e822	0.001860861
71	0x3e13476d	0.14382716
72	0xbe050f36	-0.12994084
73	0xbd905da8	-0.070491135
74	0x3d8b1080	0.067902565
75	0xbcc043fa	-0.023469914
76	0x3ea6930c	0.32534063
77	0xbc81d1b8	-0.015847072
78	0x3de16cd7	0.11007088
79	0xbe2f51ca	-0.17121044
80	0xbdc9999d	-0.098437525
81	0x3e022cf9	0.12712468
82	0xbf5e3542	-0.86800015
83	0xbe84a0c3	-0.259039
84	0xbe1ba453	-0.15199403
85	0x3f1c919e	0.61159694
86	0x3d71f1b7	0.059068408
87	0xbeaec35a	-0.34133416
88	0xbec8772b	-0.39153418
89	0xbdee78e5	-0.116441526
90	0xbe0c32a9	-0.136912
91	0x3e2208d3	0.15823679
92	0xbe86ea02	-0.2635041
93	0xbe41c477	-0.18922602
94	0x3d134d6e	0.035962515
95	0xbdd98952	-0.10621895
96	0x3da026b9	0.07819886
97	0xbdaee8f3	-0.08540525
98	0xbcdf9cc4	-0.027296431
99	0xbe83ceaa	-0.2574361
100	0xbe15b3db	-0.1461939
101	0xbe383c3b	-0.17991726
102	0xbd970290	-0.07373536
103	0x3d91620c	0.07098779
104	0x3ddf6fbe	0.10909985
105	0x3d2edfbc	0.04269384
106	0x3df6aff9	0.12045283
107	0xbd0ba060	-0.034088492
108	0x3ec36edc	0.38170516
109	0x3d9c77c5	0.07640032
110	0x3eb5a0ba	0.35474187
111	0xbf9d5f70	-1.229475
112	0xbe6c1228	-0.23053801
113	0xbd0c1c3f	-0.034206625
114	0xbe5df728	-0.21676314
115	0xbec87f09	-0.3915942
116	0xbc12d04a	-0.008960793
117	0xbf017ef1	-0.5058432
118	0xbe7b99dc	-0.24570411
119	0xbcbf6834	-0.023365118
120	0xbe6533d4	-0.22383052
121	0x3e2c2590	0.16811204
122	0xbdc10945	-0.09425596
123	0x3e965cfd	0.2936782
124	0x3c50c0aa	0.012741247
125	0x3defe0c5	0.11712793
126	0x3e4955d3	0.19661646
127	0xbd94ca22	-0.07265116
128	0xbd949ab5	-0.072560705
129	0x3d282272	0.041048475
130	0x3d803970	0.06260955
131	0xbd04d2bf	-0.032427546
132	0xbad03b99	-0.0015886902
133	0xbd89d10e	-0.06729327
134	0xbc8c2092	-0.017105374
135	0x3d858663	0.06519773
136	0xbd87986e	-0.066208705
137	0xbd2db7f6	-0.042411767
138	0x3d380b2e	0.044932537
139	0xbcaa050a	-0.020754356
140	0x3d2a696b	0.04160444
141	0x3d41ea04	0.047342315
142	0x3c277acc	0.010222148
143	0xbd226e06	-0.039655708
144	0xbdc6237f	-0.09674739
145	0x3d5cd240	0.053911448
146	0xbcd600c2	-0.026123408
147	0x3d1c35e4	0.03813733
148	0x3d717482	0.058949
149	0x3d91491f	0.07094025
150	0xbd48d8d1	-0.049034897
151	0x3d17213f	0.03689694
152	0x3db20c16	0.086937115
153	0xbd06e2fc	-0.032931313
154	0x3bcb110e	0.0061971014
155	0xbd296861	-0.04135931
156	0xbd9abed9	-0.075559326
157	0x3c90ec93	0.017690932
158	0x3c1ee68e	0.009698523
159	0x3d4d71fa	0.050157525
160	0xbd00321b	-0.031297784
161	0xbcc1520d	-0.023598695
162	0x3d8d0a4f	0.06886732
163	0x3d30b54b	0.043141644
164	0xbdad55d6	-0.084636375
165	0xbbac3283	-0.005255045
166	0xbda3e463	-0.08002546
167	0xbd233bf1	-0.039852086
168	0xbcce39d0	-0.025174052
169	0xbd7de0d0	-0.061981976
170	0xbd20cb2c	-0.03925626
171	0x3db2c41e	0.08728813
172	0xbd90f4f3	-0.0707797
173	0xbd81613a	-0.063173726
174	0xbc748b84	-0.014925841
175	0xbdb157e2	-0.086593404
176	0xb77c04f5	-1.5021525e-05
177	0x3c1ba45a	0.009499634
178	0xbdbddf87	-0.0927115
179	0x3d616175	0.055024583
180	0xbdad6dfe	-0.08468245
181	0xbd4b8eac	-0.04969661
182	0x3d5bebc3	0.053691637
183	0x3d868893	0.06569018
184	0xbd3909a2	-0.045175202
185	0xbd81921a	-0.06326695
186	0xbda12e14	-0.07870117
187	0xbc7d4e91	-0.015460626
188	0x3ce36fe7	0.02776332
189	0xbd2a11c5	-0.041520853
190	0xbce43e49	-0.027861731
191	0xbda27b74	-0.07933703
192	0x3bcb396f	0.006201915
193	0xbb4a6251	-0.0030881355
194	0xbd0aea56	-0.033914886
195	0xbd6914d7	-0.05690464
196	0xbd6a9cbb	-0.057278376
197	0x3cc8cbc2	0.024511222
198	0xbd17ee45	-0.037092466
199	0xbd7d2f43	-0.06181265
200	0xbcbb0036	-0.022827249
201	0xbd6c6e5e	-0.05772244
202	0xbad7778f	-0.001643883
203	0x3d803293	0.06259646
204	0xbc933887	-0.01797129
205	0xbd0f5e9c	-0.035002336
206	0x3bfe2076	0.0077553345
207	0x3b5c952f	0.0033658256
208	0xbd90c059	-0.070679374
209	0xbb16f991	-0.0023036937
210	0x3d47cb8b	0.048778098
211	0xbd748603	-0.059698116
212	0xbc13fb9c	-0.009032156
213	0xbcf63f5c	-0.030059509
214	0x3dac91cc	0.08426246
215	0xbdae36b3	-0.08506527
216	0x3d6a42de	0.057192676
217	0x3d297067	0.04136696
218	0x3c36ab24	0.011149202
219	0x3d87a77a	0.066237405
220	0xbbfc9d35	-0.00770917
221	0xbcb25638	-0.021769628
222	0xbc9968d3	-0.018726742
223	0x3cd67e2b	0.026183208
224	0x3d448c03	0.047985088
225	0xbd435226	-0.047685765
226	0xbbc47b95	-0.0059961774
227	0xbbbca535	-0.005756999
228	0x3d572415	0.052524645
229	0xbdd13593	-0.102152966
230	0xbd3d9c39	-0.046291564
231	0x3d8144ae	0.06311928
232	0xbd8e1f47	-0.069395594
233	0x3d824beb	0.063621365
234	0xbc99208f	-0.018692283
235	0xbd850f87	-0.06497102
236	0xbcd6993d	-0.026196117
237	0x3c8efd51	0.017454775
238	0xbda3183c	-0.07963607
239	0xbcc36a98	-0.023854539
240	0xbc127a3f	-0.008940279
241	0x3d3fc307	0.046816852
242	0xbd982d33	-0.07430496
243	0xbdbfca4b	-0.09364756
244	0xbd66fe67	-0.05639496
245	0xbdbe4ff5	-0.09292594
246	0xbd551632	-0.05202312
247	0xbd49d40c	-0.04927449
248	0x3d9169a0	0.071002245
249	0x3d26a7ba	0.0406873
250	0xbd335ea2	-0.04379142
251	0x3cd302f1	0.025758239
252	0x3d528296	0.051394068
253	0xbd1db3fd	-0.03850173
254	0xbd6a6830	-0.057228267
255	0x3d80efc5	0.062957324

decoder_hidden_layer.bias f4 [128]
0	0x3dab6ab1	0.08369959
1	0xbc4d8d3f	-0.012545883
2	0xbc824f9b	-0.0159071
3	0x3e1b3fe7	0.15161096
4	0xbdf0311d	-0.117281176
5	0xbc899689	-0.016795414
6	0xbdddaf95	-0.10824505
7	0xbda367c3	-0.07978775
8	0xbd19ec9f	-0.037579175
9	0xbda8f852	-0.08250488
10	0xbe0607e6	-0.1308895
11	0xbe854f26	-0.26036948
12	0x3d923529	0.07139046
13	0xbdc0c591	-0.09412683
14	0xbd98cc1c	-0.07460806
15	0xbd7ace9e	-0.0612322
16	0x3e3cad81	0.18425561
17	0x3d3137e2	0.043266185
18	0xbe8ec183	-0.27882013
19	0xbed3dc02	-0.4137879
20	0x3e32554d	0.17415352
21	0xbd1a50dc	-0.03767477
22	0x3d96773a	0.073469594
23	0xbc1cf173	-0.00957905
24	0xbce161e7	-0.027512504
25	0x3d07227e	0.03299188
26	0x3e97d3a7	0.29653665
27	0xbe1f9e2b	-0.1558768
28	0xbd8dbcd7	-0.06920784
29	0xbdac1839	-0.084030576
30	0x3ebeb7d7	0.37249634
31	0xbd9cfd44	-0.07665494
32	0xbe864ee3	-0.2623206
33	0x3d8a76f0	0.06760967
34	0x3e1bd213	0.15216856
35	0x3c5ee5e8	0.013604619
36	0x3d846590	0.06464684
37	0xbdff9486	-0.124795005
38	0x3ed36f0e	0.41295666
39	0xbd7f0065	-0.062256236
40	0xbc35da96	-0.011099478
41	0x3def46d3	0.116834305
42	0xbd2c2beb	-0.04203407
43	0xbe050b5f	-0.12992619
44	0x3dc13339	0.09433598
45	0x3e887c05	0.2665712
46	0xbd89cc37	-0.06728404
47	0x3e6e81d0	0.23291707
48	0x3efe34a9	0.49649552
49	0x3d4f56e7	0.050619986
50	0x3dcae28d	0.099064924
51	0xbe5c18f9	-0.21493901
52	0xbdfc4579	-0.12317938
53	0xbbf62896	-0.0075121624
54	0xbea5b128	-0.32361722
55	0xbd8bd257	-0.068272285
56	0x3e3bac65	0.18327482
57	0x3b0a3ee7	0.0021094622
58	0x3e3bb293	0.1832984
59	0xbc9b6913	-0.018971002
60	0xbd8b96a3	-0.06815841
61	0xbe354502	-0.17702106
62	0xbe01e972	-0.12686709
63	0x3c51f2c1	0.012814225
64	0xbd7ec0bf	-0.062195536
65	0x3d068949	0.03284577
66	0xbe86403b	-0.2622088
67	0xbd8ab326	-0.06772451
68	0xbe12e274	-0.14344198
69	0xbe5afa2e	-0.21384498
70	0xbd2b3355	-0.041797
71	0x3e921166	0.285289
72	0xbea1c9e6	-0.3159935
73	0x3b2576c4	0.0025247792
74	0x3cf31cff	0.029676912
75	0x3e64ab6d	0.22331019
76	0xbc71c7cb	-0.014757107
77	0xbd712d4a	-0.05888108
78	0xbd2e1f7a	-0.042510487
79	0xbe8ec1bb	-0.2788218
80	0xbc04e2b0	-0.008110687
81	0xbd90463e	-0.07044648
82	0x3d39715e	0.04527413
83	0x3c1ead0a	0.00968481
84	0x3eba3af7	0.36373112
85	0x3dbf8c16	0.09352891
86	0xbea2782b	-0.31732306
87	0xbdb55ae0	-0.08855224
88	0xbec612ea	-0.38686305
89	0x3caa7deb	0.020811995
90	0x3eaca79f	0.33721635
91	0xbd9c5baa	-0.07634671
92	0xbe43f598	-0.19136655
93	0xbea5ed37	-0.32407543
94	0x3eb15416	0.34634465
95	0x3e2e9b96	0.17051539
96	0xbe497604	-0.19673926
97	0x3d62aaf3	0.05533881
98	0xbec1d296	-0.37855977
99	0xbea66241	-0.32496837
100	0xbea08329	-0.31350067
101	0xbdd538e0	-0.10411239
102	0x3da45aa5	0.080251016
103	0xbd9b72d6	-0.075902626
104	0x3e9f696d	0.3113512
105	0x3d545e1b	0.05184756
106	0xbc908666	-0.017642211
107	0xbe15c40a	-0.14625564
108	0xbe0c6976	-0.13712105
109	0xbddbe906	-0.10737805
110	0xbdd43003	-0.1036072
111	0xbe93d019	-0.28869703
112	0x3da1c4b3	0.078988455
113	0xbba31cab	-0.0049777827
114	0x3e3889a7	0.1802126
115	0x3e1bbb2a	0.15208116
116	0x3e70b538	0.2350663
117	0xbd1edc86	-0.038784526
118	0xbd71d646	-0.059042238
119	0xbd3b01d4	-0.04565604
120	0xbd216411	-0.03940207
121	0xbcb4b5a4	-0.02205927
122	0xbed71a0b	-0.42012057
123	0xbc8b35e3	-0.016993469
124	0xbd04c7ac	-0.032416984
125	0xbe13a197	-0.1441711
126	0x3e1e14aa	0.1543757
127	0xbd0c6ad0	-0.03428155

decoder_output_layer.weight f4 [784, 128]
0	0xbf8c2312	-1.0948203
1	0x3d8ece4b	0.06972941
2	0xbcf7c12a	-0.030243475
3	0xbf00a7e7	-0.502562
4	0xbea776c5	-0.327078
5	0x3d06d4b2	0.032917686
6	0xbf7be909	-0.9840246
7	0xbecf3fda	-0.40478402
8	0x3d20c679	0.03925178
9	0xbf3a31a4	-0.72731996
10	0xbf129a74	-0.57266927
11	0xbf2c57da	-0.6732155
12	0xbea73dec	-0.3266443
13	0xbd3a156f	-0.045430597
14	0xbd9a18c2	-0.075242534
15	0xbeb6d36b	-0.35708174
16	0xbee5ffbb	-0.4492167
17	0x3da85c07	0.08220678
18	0xbf85424d	-1.0410858
19	0xbef7311e	-0.4827966
20	0xbee251e7	-0.44203112
21	0xbf3ac21d	-0.72952443
22	0xbf7e952d	-0.99446374
23	0xbebd848c	-0.37015188
24	0xbf44ce21	-0.7687703
25	0xbd0badc6	-0.03410127
26	0xbe92d465	-0.2867767
27	0xbeffde8f	-0.49974486
28	0x3cea28bb	0.028583875
29	0xbe8415ab	-0.2579778
30	0xbea800d2	-0.32813126
31	0xbda53c0a	-0.08068092
32	0xbf5c5ab3	-0.86075896
33	0xbd92cde7	-0.07168179
34	0xbf9e2b56	-1.2356975
35	0xbf885bee	-1.0653055
36	0xbf21886f	-0.63098806
37	0xbf489139	-0.7834659
38	0xbf326341	-0.696827
39	0xbf767191	-0.9626704
40	0xbe8d0765	-0.27544704
41	0xbf8b73ca	-1.0894711
42	0xbf5a7c74	-0.8534615
43	0xbe3ad704	-0.18246084
44	0xbf45d779	-0.7728191
45	0xbeb2abfb	-0.34896836
46	0x3caa8698	0.020816132
47	0xbee6f3bf	-0.4510784
48	0xbf8fa76e	-1.122297
49	0xbd36c161	-0.044618014
50	0xbec17672	-0.3778568
51	0xbf13937b	-0.5764691
52	0xbf88f885	-1.0700842
53	0xbd5f45cd	-0.054509927
54	0xbed05888	-0.40692544
55	0xbede92c7	-0.43471357
56	0xbebedf05	-0.37279525
57	0x3d1fad7e	0.038983814
58	0xbf3675e4	-0.71273637
59	0xbd901176	-0.070345804
60	0x3d833747	0.06407028
61	0xbed23704	-0.410576
62	0xbeffac1a	-0.4993599
63	0x3d905fe8	0.07049543
64	0xbea8b379	-0.32949427
65	0xbee7edb3	-0.45298538
66	0xbeb64b00	-0.35604095
67	0xbc4f22b0	-0.0126425475
68	0xbedb04c8	-0.42777085
69	0xbef62635	-0.48076025
70	0xbda735d4	-0.08164564
71	0xbf7be479	-0.98395497
72	0xbea8bc3a	-0.32956105
73	0x3d51807b	0.05114792
74	0xbebe4098	-0.37158656
75	0xbee6ae88	-0.45055032
76	0xbf416923	-0.7555105
77	0x3d268136	0.04065057
78	0xba5e9c2c	-0.00084918994
79	0xbe9b7602	-0.3036347
80	0xbedb6c18	-0.42855906
81	0xbf112f55	-0.5671285
82	0xbf7c98e7	-0.9867081
83	0xbe65d3d0	-0.22444081
84	0xbeee6f41	-0.46569255
85	0xbf10cdd3	-0.5656406
86	0xbeac6a3e	-0.33674806
87	0xbf2b3f68	-0.66893625
88	0xbec4e3d6	-0.38455075
89	0xbdaa3e8a	-0.0831271
90	0xbecd2fa0	-0.40075397
91	0xbf1c0034	-0.6093781
92	0xbf5cb138	-0.86207914
93	0xbec585e8	-0.38578725
94	0xbe829c51	-0.25509885
95	0xbec270ae	-0.37976593
96	0xbf345a6a	-0.7045046
97	0xbeb9e911	-0.36310628
98	0xbefb169d	-0.4904069
99	0xbef52399	-0.4787872
100	0xbe86af05	-0.26305404
101	0xbf5295d8	-0.82259893
102	0xbf1cce03	-0.6125185
103	0xbf887aaf	-1.066244
104	0xbeb54044	-0.35400593
105	0xb833091b	-4.2685406e-05
106	0xbee61658	-0.44938922
107	0xbeb81087	-0.3595011
108	0xbf3c0bdf	-0.73455614
109	0x3d478768	0.048713118
110	0xbedfc829	-0.43707398
111	0xbeffe864	-0.49981987
112	0xbefd1991	-0.49433568
113	0x3d45e5d4	0.048314884
114	0xbf8d0167	-1.1016053
115	0xbecbf7d6	-0.3983752
116	0xbe9bd3ac	-0.3043493
117	0xbd9d140f	-0.076698415
118	0xbc574443	-0.013138833
119	0xbd897fbc	-0.067138165
120	0xbe9fd2c1	-0.3121548
121	0xbebd4341	-0.36965373
122	0xbf087525	-0.5330375
123	0xbcd0586a	-0.025432784
124	0xbda78ba9	-0.08180935
125	0xbec45262	-0.38344103
126	0xbe9cc4a1	-0.30618766
127	0xbc8a30b8	-0.016868934
128	0xbf8ec985	-1.1155249
129	0xbcfc9f57	-0.030837698
130	0x3d6ecfa9	0.05830351
131	0xbef5d42b	-0.48013434
132	0xbe943956	-0.28949994
133	0x3c22754c	0.009915661
134	0xbf7c4e17	-0.98556656
135	0xbed56568	-0.4167893
136	0x3d90437f	0.07044124
137	0xbf42f49d	-0.761545
138	0xbf128510	-0.5723429
139	0xbf2f2f3c	-0.6843145
140	0xbea0ab65	-0.31380764
141	0xbd879fcf	-0.06622278
142	0x3d3761d8	0.044771045
143	0xbec8bdc6	-0.39207286
144	0xbeed5f9a	-0.46362
145	0xbda9ea2a	-0.082966164
146	0xbf8d9571	-1.1061231
147	0xbf00921e	-0.5022296
148	0xbec35a97	-0.38155052
149	0xbf49fcd1	-0.7890139
150	0xbf812f6d	-1.0092598
151	0xbeb2ce56	-0.34923047
152	0xbf4a69ae	-0.79067504
153	0x3d5487d6	0.051887356
154	0xbe80a9b1	-0.25129464
155	0xbefef2af	-0.49794528
156	0xbd91b909	-0.07115371
157	0xbe79dc3e	-0.24400422
158	0xbe93e33c	-0.28884304
159	0xbd9552aa	-0.072911575
160	0xbf5bddbb	-0.8588521
161	0x3d34d01d	0.044143785
162	0xbf9f7752	-1.2458289
163	0xbf977d62	-1.1835139
164	0xbf210cd6	-0.6291021
165	0xbf46cd91	-0.7765742
166	0xbf3014fd	-0.68782026
167	0xbf75f168	-0.9607148
168	0xbea0cd0f	-0.31406447
169	0xbf851036	-1.0395572
170	0xbf6c9558	-0.9241538
171	0xbe22b3e3	-0.15888934
172	0xbf437e8d	-0.76364976
173	0xbeb44434	-0.35208285
174	0xbdb89b11	-0.090139516
175	0xbee67f4d	-0.45018998
176	0xbf8ae10c	-1.0849929
177	0xbd9d3cbb	-0.07677599
178	0xbed74f3f	-0.42052647
179	0xbf10dcac	-0.5658672
180	0xbf8a024e	-1.0781953
181	0xbd931594	-0.0718185
182	0xbecbd126	-0.39808005
183	0xbee70526	-0.45121115
184	0xbea552dd	-0.32289782
185	0x3d3a3ebb	0.04546998
186	0xbf3c2d27	-0.73506397
187	0xbcec0c62	-0.028814498
188	0xbbdc2469	-0.0067182076
189	0xbebcc722	-0.36870676
190	0xbef90db5	-0.4864327
191	0x3d8a90fc	0.06765935
192	0xbe9b79a8	-0.30366254
193	0xbf049eeb	-0.5180499
194	0xbeb9387b	-0.36175904
195	0x3c85cf1a	0.016334105
196	0xbecfa6e3	-0.40557012
197	0xbeea6524	-0.4578029
198	0xbda6cd3b	-0.08144613
199	0xbf80fb44	-1.007668
200	0xbeba1b5e	-0.36349005
201	0x3ce4294c	0.027851723
202	0xbebea610	-0.3723607
203	0xbee10d08	-0.43955255
204	0xbf3ab9cb	-0.7293975
205	0xbb96400b	-0.0045852712
206	0xbd8c2839	-0.06843609
207	0xbe9ae5c6	-0.30253428
208	0xbed7eeb6	-0.4217431
209	0xbf0de7f4	-0.5543206
210	0xbf743ced	-0.95405465
211	0xbe792da4	-0.24333817
212	0xbef9e1a0	-0.4880495
213	0xbf096477	-0.5366892
214	0xbec21180	-0.37903976
215	0xbf2d878f	-0.6778497
216	0xbebde761	-0.3709059
217	0xbcfc0f8f	-0.030769138
218	0xbeeb6b1e	-0.4598016
219	0xbf220657	-0.63290924
220	0xbf68a91d	-0.90883046
221	0xbec612f1	-0.38686326
222	0xbe5ee208	-0.21765912
223	0xbe979b18	-0.29610515
224	0xbf341ce2	-0.7035657
225	0xbeb01702	-0.34392554
226	0xbeec3306	-0.46132678
227	0xbee11589	-0.43961743
228	0xbe89734e	-0.26845783
229	0xbf4770c2	-0.7790643
230	0xbf19a0f9	-0.6001125
231	0xbf84351e	-1.032871
232	0xbecb4683	-0.39702234
233	0xbceeb826	-0.029140543
234	0xbef624f0	-0.48075056
235	0xbeb74fe9	-0.35803154
236	0xbf27e426	-0.655825
237	0xbd7325a5	-0.059362072
238	0xbedd8f1d	-0.4327325
239	0xbef58947	-0.47956297
240	0xbf058643	-0.5215799
241	0xbd7b6bad	-0.061381985
242	0xbf887016	-1.0659206
243	0xbeb218f0	-0.3478465
244	0xbe9bce4e	-0.30430835
245	0xbccd2812	-0.025043521
246	0xbd8441d1	-0.06457866
247	0x3c95bfcb	0.01827993
248	0xbea965cb	-0.33085474
249	0xbec263a9	-0.3796666
250	0xbf00c2c4	-0.5029719
251	0xbd9789e7	-0.0739935
252	0xbd42a09e	-0.047516458
253	0xbebf8523	-0.37406263
254	0xbea4e45c	-0.32205474
255	0xbdabe89b	-0.08393975

decoder_output_layer.bias f4 [784]
0	0xbff6ba5e	-1.9275625
1	0xbff87f8d	-1.9413925
2	0xbff93b05	-1.9471136
3	0xbff628ef	-1.9231242
4	0xbff9a8d5	-1.9504648
5	0xbff5a0d7	-1.918971
6	0xbfef14da	-1.8678238
7	0xbffa8e28	-1.9574633
8	0xbff2ec3a	-1.8978341
9	0xbffcf876	-1.9763324
10	0xbff4495b	-1.9084886
11	0xbff6c25f	-1.9278067
12	0xbfecbea4	-1.8495679
13	0xbffe1394	-1.9849725
14	0xbff6c399	-1.9278442
15	0xbff72c15	-1.9310328
16	0xbffc31d8	-1.9702711
17	0xbfffa65f	-1.9972647
18	0xbfed3865	-1.8532835
19	0xbff1098c	-1.8831038
20	0xbfedb32a	-1.8570302
21	0xbff9798d	-1.9490219
22	0xbff03fc0	-1.8769455
23	0xbff07c5b	-1.878795
24	0xbfef4949	-1.869424
25	0xbfee49b4	-1.8616242
26	0xbff244f7	-1.8927296
27	0xbfeda53b	-1.8566049
28	0xbff090d6	-1.87942
29	0xbff528df	-1.9153098
30	0xbff3529d	-1.9009587
31	0xbff84610	-1.9396381
32	0xbfef2700	-1.8683777
33	0xbff64be1	-1.9241906
34	0xbff49031	-1.9106504
35	0xbff32d82	-1.8998263
36	0xbff08bd0	-1.8792667
37	0xbfedf89c	-1.8591495
38	0xc0006688	-2.006258
39	0xbff4d79c	-1.9128299
40	0xbffcab44	-1.9739766
41	0xbff90148	-1.9453516
42	0xbff59122	-1.9184916
43	0xc00160d6	-2.0215354
44	0xbff5f95b	-1.9216722
45	0xc000f45b	-2.0149143
46	0xbffb8779	-1.9650718
47	0xc00160fa	-2.021544
48	0xbfee424f	-1.8613986
49	0xbff33be0	-1.9002647
50	0xbff062cc	-1.878015
51	0xbff4a6d1	-1.9113408
52	0xbff5543a	-1.9166329
53	0xbff32059	-1.8994247
54	0xbff7f2c3	-1.937096
55	0xbff8d58f	-1.9440173
56	0xbff8c026	-1.9433639
57	0xbff7bf24	-1.9355206
58	0xbff3d1f3	-1.9048446
59	0xbff5b6d7	-1.9196423
60	0xbff4a00d	-1.9111344
61	0xbff77fc2	-1.9335864
62	0xbffbf40d	-1.9683853
63	0xbfff2b84	-1.9935155
64	0xc00d1088	-2.204134
65	0xc0130c6a	-2.2976327
66	0xc00f0001	-2.2343752
67	0xc0080614	-2.125371
68	0xc002e5b3	-2.0452697
69	0xbffeae74	-1.9896989
70	0xbffe2330	-1.9854488
71	0xc0002530	-2.0022697
72	0xbff9778a	-1.9489605
73	0xbff80149	-1.9375392
74	0xbfeadb39	-1.8348151
75	0xbfd29819	-1.6452667
76	0xbfd35485	-1.6510168
77	0xbfe5ed04	-1.7962956
78	0xbff82e84	-1.9389195
79	0xbff70423	-1.9298137
80	0xbff6ed7d	-1.9291226
81	0xbff7a5b7	-1.9347447
82	0xbfeff287	-1.8745888
83	0xbfeeb8d2	-1.8650153
84	0xbff21736	-1.8913333
85	0xbff4bb03	-1.9119571
86	0xbff5b5e4	-1.9196134
87	0xbff0c217	-1.8809232
88	0xbff61928	-1.9226427
89	0xbfee3393	-1.8609489
90	0xbfe64502	-1.798981
91	0xc0279f01	-2.6190798
92	0xc016d42e	-2.3567004
93	0xbff7aca3	-1.934956
94	0xbfd51ae0	-1.6648827
95	0xbfc8f212	-1.5698874
96	0xbfc49d2e	-1.5360467
97	0xbfbd8587	-1.4806374
98	0xbfb4c0cb	-1.4121336
99	0xbfac7636	-1.3473575
100	0xbfa58fd8	-1.2934523
101	0xbf9a3f7a	-1.2050622
102	0xbf957abb	-1.1678079
103	0xbf9d9660	-1.2311516
104	0xbfa0d054	-1.2563577
105	0xbfaf1d03	-1.3680729
106	0xbfd81fe0	-1.6884727
107	0xbfe85fe6	-1.8154266
108	0xbfef7616	-1.8707912
109	0xbfeee7cc	-1.8664489
110	0xbff4f6b4	-1.9137788
111	0xbff63c6a	-1.9237187
112	0xbff9fb02	-1.9529727
113	0xbfed0387	-1.8516701
114	0xbff4349d	-1.9078556
115	0xbff6c61f	-1.9279212
116	0xbff0e9ac	-1.8821311
117	0xc03fae28	-2.9950047
118	0xc03d1dbf	-2.9549406
119	0xc016aa81	-2.3541567
120	0xbfdbf8e0	-1.7185326
121	0xbf9bb35f	-1.2164115
122	0xbf63ece6	-0.89033353
123	0xbf2ca18a	-0.6743399
124	0xbf1211b5	-0.5705827
125	0xbefedddc	-0.4977864
126	0xbed1f9de	-0.41010946
127	0xbebbef43	-0.3670598
128	0xbedc6340	-0.43044472
129	0xbf24e4fe	-0.64411914
130	0xbf6ef994	-0.93349576
131	0xbfa4f6a1	-1.2887765
132	0xbfd9ea99	-1.7024719
133	0xc0090a5d	-2.1412575
134	0xc02868c4	-2.6313944
135	0xc03c9637	-2.9466684
136	0xc051122c	-3.2667341
137	0xc0004bdd	-2.0046303
138	0xbff70b0e	-1.9300249
139	0xbffa1505	-1.9537665
140	0xbfeee6d6	-1.8664196
141	0xbff24002	-1.8925784
142	0xbff35a11	-1.9011861
143	0xbff0363e	-1.8766553
144	0xc025dd21	-2.5916216
145	0xc0314e57	-2.7704065
146	0xc00ac3c2	-2.168198
147	0xbfc7474b	-1.5568632
148	0xbf7922cc	-0.9731872
149	0xbefaa71f	-0.48955628
150	0xbdd5ed53	-0.104456566
151	0x3e497f96	0.19677576
152	0x3ec641b6	0.38722008
153	0x3f0744d8	0.5283942
154	0x3f307d13	0.6894085
155	0x3f45550f	0.77082914
156	0x3f25362e	0.64535797
157	0x3eda35ff	0.4261932
158	0x3cd30dad	0.025763357
159	0xbee48a84	-0.4463693
160	0xbf5780ef	-0.8418111
161	0xbfa42b56	-1.2825725
162	0xbfe08f89	-1.7543803
163	0xc008c64b	-2.1371028
164	0xc020eea8	-2.5145664
165	0xc04734ea	-3.1126046
166	0xbff15599	-1.8854247
167	0xbff8c959	-1.9436446
168	0xbff4a7c2	-1.9113696
169	0xbfef7d53	-1.8710121
170	0xbff65f28	-1.9247789
171	0xbffb5c1b	-1.9637483
172	0xc038d894	-2.8882189
173	0xc0170bf6	-2.360105
174	0xbfd414ad	-1.656881
175	0xbf7c39b7	-0.98525566
176	0xbeb7bbdb	-0.3588551
177	0x3e12ac1d	0.14323469
178	0x3f08b0f6	0.5339502
179	0x3f457764	0.771353
180	0x3f5aa604	0.8540957
181	0x3f64c448	0.89362
182	0x3f7a3963	0.97743815
183	0x3f84e988	1.0383768
184	0x3f77da6d	0.96817666
185	0x3f5b76e4	0.8572829
186	0x3f24c01b	0.6435563
187	0x3eb97022	0.36218363
188	0x3c9a9cd3	0.018873608
189	0xbed0c169	-0.4077256
190	0xbf63e812	-0.89025986
191	0xbfa5aa12	-1.2942526
192	0xbfd3fac0	-1.6560898
193	0xc010592d	-2.2554429
194	0xc02ecf05	-2.7313855
195	0xbff9a5bd	-1.9503704
196	0xbff29b07	-1.895356
197	0xbff80fe8	-1.9379854
198	0xbff25344	-1.8931661
199	0xc065068e	-3.578525
200	0xc0356f17	-2.8349054
201	0xc001de60	-2.0291977
202	0xbfa2133d	-1.2662121
203	0xbf0ced53	-0.5504963
204	0x3d89c85c	0.06727669
205	0x3f093997	0.536035
206	0x3f481d32	0.7816955
207	0x3f55c017	0.8349623
208	0x3f4606af	0.7735395
209	0x3f2a7b13	0.66594046
210	0x3f275f51	0.65379816
211	0x3f3027fb	0.68811005
212	0x3f3b4bb8	0.7316241
213	0x3f4178a5	0.75574714
214	0x3f45487d	0.77063733
215	0x3f3db9e4	0.7411177
216	0x3f0d4aa7	0.55192035
217	0x3e291c9f	0.16514824
218	0xbe8382b0	-0.25685644
219	0xbf1b7f35	-0.6074098
220	0xbf70123e	-0.93777835
221	0xbfcd7809	-1.6052257
222	0xc022000d	-2.531253
223	0xbff82469	-1.9386111
224	0xbff79b3d	-1.934425
225	0xbff1b918	-1.8884611
226	0xbffd3b29	-1.9783679
227	0xc0410d4c	-3.0164366
228	0xc01abed4	-2.4178972
229	0xbfd213e4	-1.641232
230	0xbf601f59	-0.8754783
231	0xbe02db93	-0.12779073
232	0x3ee6ff9e	0.45116895
233	0x3f4f1e1b	0.8090531
234	0x3f5b0d08	0.8556676
235	0x3f3630de	0.71168315
236	0x3eee5f2f	0.46556994
237	0x3e729ff1	0.23693825
238	0x3df72001	0.12066651
239	0x3e20c13b	0.15698712
240	0x3e981276	0.29701585
241	0x3ed5642b	0.41677985
242	0x3f290fd9	0.66039807
243	0x3f5d7055	0.8649953
244	0x3f510273	0.8164436
245	0x3f08b026	0.5339378
246	0x3e33d742	0.17562583
247	0xbe7c3641	-0.24630071
248	0xbf14a299	-0.58060604
249	0xbf9fd2c0	-1.2486191
250	0xc011bf8e	-2.2773166
251	0xbfedf7b5	-1.8591219
252	0xbff94605	-1.9474493
253	0xbff01386	-1.8755958
254	0xc01fc7aa	-2.4965615
255	0xc016141f	-2.344978
