AdvancedML/Mnist_without_dropout.pt (torch, 941575 bytes, 8 tensors)

encoder_hidden_layer.weight f4 [128, 784]
0.02730495 0.02964314 -0.008366874 0.032807548 -0.007825128 0.0072068106 -0.01738768 0.02097438
0.031483676 -0.026201006 0.031042721 0.006684261 0.9166006 0.29887813 -0.6652622 -0.21704051
0.027531639 0.00527889 -0.016672855 0.009103511 -0.016454881 -0.0041883164 -0.0145056555 0.023691822
-0.028191794 -0.016464656 -0.0100848125 -0.021474017 0.003370826 -0.035274256 0.0322539 -0.030338153
-0.4833206 -0.48032996 0.9219204 0.3758986 -0.0131589025 -0.08481926 0.15281938 -0.0201399
0.06425882 0.12442202 0.071087986 -0.07372287 0.11439226 0.0074145687 -0.5256115 0.0513929
-0.09825859 -0.16045934 -0.22273587 -0.23622046 -0.027393674 0.02930496 0.010286834 0.014793341
0.011295042 -0.00062128477 -0.33716327 -0.8714856 -0.13060226 0.5330589 0.38697568 0.06955544
0.17749824 0.18711081 -0.18225408 -0.1826199 0.002976386 -0.012581253 -0.07447411 0.08738265
-0.12553148 -0.14975433 -0.025922846 -0.030991388 0.01747172 -0.2348752 -0.00070288917 0.3059042
-0.35785064 0.34587464 0.01894922 -0.014435875 0.021675851 -0.008475023 0.2273305 -0.080120385
0.563385 -0.2990155 0.24031582 0.17543705 0.18362758 0.16642317 0.11318319 0.20125942
0.13682966 0.060526565 0.05549797 0.12278156 0.014166129 -0.04063757 0.06721692 0.13560979
0.04596114 0.23143002 0.07283334 0.20013824 -0.07922047 -0.080436446 0.29883474 0.0067455345
0.011005704 0.64662415 0.080933526 -0.39446747 0.15756916 0.0025757237 0.08444431 0.09320257
0.052154094 0.14462195 0.1903821 0.33752424 0.18272401 -0.07318059 -0.042684093 0.11547328
0.2479228 0.1902584 0.04122157 -0.053689186 0.078858905 0.14699732 0.23892604 0.12145659
0.10721996 0.10455798 0.11107151 0.821811 0.013904397 -0.02930941 0.23090632 0.15783036
0.08947875 0.115649216 0.111269325 0.058193024 0.17135467 0.06702655 0.075754024 0.15749814
0.007683503 -0.1744831 -0.1336773 0.029300295 0.21724743 0.09778895 -0.14421363 -0.14213763
-0.0131123625 0.1647721 0.15073289 0.13130943 0.35677686 0.15750575 0.29980013 -0.2987905
0.007962457 -0.8857844 0.20879105 -0.0665999 -0.07497153 0.010223141 0.28732052 0.19641903
0.15229562 0.014160235 0.053580247 0.025693834 -0.025515188 -0.0070517906 -0.07290302 -0.0156077985
0.065260865 -0.024409033 -0.12984928 -0.11066818 0.08840469 0.12843657 0.16024202 0.32703498
0.27571627 0.28246814 -0.07378973 0.0896362 -0.035304923 0.19109866 -0.2601178 -0.06817108
0.03837526 0.21989863 0.140186 0.19727354 0.05016678 0.015401338 -0.10902046 -0.061952908
0.049988575 0.09147571 -0.05048905 -0.11610175 -0.049788035 -0.064203195 -0.038427513 -0.037258215
0.09127252 0.0735422 0.05242112 0.113808125 0.07089108 -0.063166395 0.0026979528 0.079417974
0.37551147 -0.25696665 0.3139309 -0.05828597 0.039426427 0.14322662 0.18993697 0.24968432
0.13474855 -0.029315583 -0.18817885 -0.038061682 0.050818533 0.030531045 -0.067154765 -0.107764706
-0.01799519 0.02337201 0.018058203 0.007381906 -0.0070245364 -0.006365877 -0.05374035 -0.08059297
0.1277217 0.12718911 -0.067252554 0.14118296 0.049451593 -0.14205226 0.0027581286 -0.05332292
00000000: a1ae df3c 2cd6 f23c 3715 09bc 3561 063d
00000010: f734 00bc 1c27 ec3b 9c70 8ebc 77d2 ab3c
00000020: 07f5 003d 7ea3 d6bc 4e4d fe3c a507 db3b
00000030: 56a6 6a3f 8e06 993e a04e 2abf de3f 5ebe
00000040: 088a e13c 8afa ac3b 8395 88bc e526 153c
00000050: 63cc 86bc 253e 89bb 21a9 6dbc 5a15 c23c
00000060: 7af2 e6bc e3e0 86bc c53a 25bc 47ea afbc
00000070: 13e9 5c3b bd7b 10bd aa1c 043d b887 f8bc
00000080: cc75 f7be cfed f5be fa02 6c3f c875 c03e
00000090: 7098 57bc b8b5 adbd af7c 1c3e 6efc a4bc
000000a0: 219a 833d f9d0 fe3d 9496 913d 04fc 96bd
000000b0: 7d46 ea3d e9f5 f23b 7a8e 06bf 5d81 523d
000000c0: cd3b c9bd 744f 24be df14 64be c7e3 71be
000000d0: b368 e0bc f510 f03c 1c8a 283c c55f 723c
000000e0: d70e 393c b7dd 22ba aaa0 acbe ae19 5fbf
000000f0: 99bc 05be 8c76 083f ad21 c63e 1573 8e3d
00000100: 19c2 353e fa99 3f3e d0a0 3abe b600 3bbe
00000110: 790f 433b 9a21 4ebc e285 98bd adf5 b23d
00000120: 538b 00be 3359 19be 265c d4bc a7e1 fdbc
00000130: da20 8f3c 2083 70be 1842 38ba 7a9f 9c3e
00000140: 3338 b7be 7b16 b13e 653b 9b3c 7384 6cbc
00000150: 8e91 b13c d3da 0abc 54c9 683e 2816 a4bd
00000160: 003a 103f 8f18 99be 5a15 763e c5a5 333e
00000170: de08 3c3e d66a 2a3e 97cc e73d f316 4e3e
00000180: 131d 0c3e b4ea 773d d751 633d e674 fb3d
00000190: 0d19 683c 9573 26bd 06a9 893d 4bdd 0a3e
000001a0: c041 3c3d fefb 6c3e a529 953d 0af1 4c3e
000001b0: 573e a2bd ddbb a4bd de00 993e a509 dd3b
000001c0: 4551 343c 2989 253f 7ac0 a53d a4f7 c9be
000001d0: cf59 213e 79cd 283b 23f1 ac3d fde0 be3d
000001e0: 889f 553d c717 143e 86f3 423e facf ac3e
000001f0: 011c 3b3e b5df 95bd 84d5 2ebd 417d ec3d
00000200: 79df 7d3e 19d3 423e f3d7 283d 31e9 5bbd
00000210: c780 a13d 7786 163e 07a9 743e 3cbe f83d
00000220: 2396 db3d 7f22 d63d 7679 e33d 3562 523f
00000230: 45cf 633c 4a1a f0bc b572 6c3e 489e 213e
00000240: a340 b73d 7fd9 ec3d 2ce1 e33d cf5b 6e3d
00000250: 9977 2f3e 3745 893d ed24 9b3d 3147 213e
00000260: e5c5 fb3b b3ab 32be b4e2 08be 2c07 f03c
00000270: 1c76 5e3e 9345 c83d bdac 13be 878c 11be
00000280: 3cd5 56bc 04ba 283e b959 1a3e fb75 063e
00000290: 75ab b63e 3049 213e 677f 993e 12fb 98be
000002a0: f774 023c c4c2 62bf 52cd 553e 8765 88bd
000002b0: ac8a 99bd f67e 273c ad1b 933e 1222 493e
000002c0: 62f3 1b3e 5500 683c f676 5b3d e07b d23c
000002d0: 3a05 d1bc b512 e7bb 2e4e 95bd dab7 7fbc
000002e0: 7da7 853d 74f5 c7bc 36f7 04be 00a6 e2bd
000002f0: 850d b53d e084 033e 7c16 243e 2171 a73e
00000300: af2a 8d3e aa9f 903e 121f 97bd 2f93 b73d
00000310: e59b 10bd 5eaf 433e 292e 85be 479d 8bbd
00000320: 602f 1d3d 1b2d 613e eb8c 0f3e 1302 4a3e
00000330: ae7b 4d3d e555 7c3c 1e46 dfbd 55c2 7dbd
00000340: d2c0 4c3d 9e57 bb3d 9bcd 4ebd c1c6 edbd
00000350: 8aee 4bbd f77c 83bd 2b66 1dbd 129c 18bd
00000360: 16ed ba3d 4b9d 963d 87b7 563d 3c14 e93d
00000370: 582f 913d 625d 81bd 23d0 303b e4a5 a23d
00000380: 0a43 c03e 2291 83be 8dbb a03e 45bd 6ebd
00000390: 9b7d 213d 00aa 123e d67e 423e 3fad 7f3e
000003a0: 86fb 093e 3c27 f0bc f5b1 40be 91e6 1bbd
000003b0: 1827 503d 3e1c fa3c 7088 89bd beb3 dcbd
000003c0: a66a 93bc a876 bf3c ccee 933c eae3 f13b
000003d0: 152e e6bb d998 d0bb d71e 5cbd ed0d a5bd
000003e0: 7ac9 023e dd3d 023e b5bb 89bd 4492 103e
000003f0: c18d 4a3d 2676 11be b8c1 343b 2269 5abd

encoder_hidden_layer.bias f4 [128]
0.18361045 0.7985274 0.26242366 0.6249582 0.59925187 0.013854894 0.019766653 -0.011685872
0.08599892 0.5517695 0.7614219 1.6487298 0.0023504638 0.8585734 1.029748 -0.013473242
-0.029176598 -0.2868126 0.0030400986 0.616432 0.91821 0.55288255 0.027848676 0.5181071
-0.030819302 0.03207508 -0.03870927 0.15499231 1.5992302 0.47010362 0.89353997 -0.15944292
0.9105569 0.55037427 1.365451 0.0197204 -0.011792419 0.43805602 0.8281162 0.21799581
0.04224322 -0.016682673 -0.023323195 0.77376544 -1.8701323 0.30793506 0.011016659 -0.022300636
1.3448459 1.4836671 0.38356277 0.93690884 0.9146923 0.10852265 -0.18851304 0.06394277
0.09346048 1.1426702 0.011524878 -0.029051388 0.043468017 -0.011259739 0.18444501 0.010639784
-0.13467047 1.5283722 -0.018236218 0.85544485 -0.12858765 0.2142028 0.831573 0.8502348
0.93521845 0.0829246 1.2330023 0.7332723 1.0372272 0.09201431 -0.21246651 0.013065134
-0.17757243 -0.10349248 -0.028866587 0.7038289 0.940966 1.2221978 -0.04801267 0.735494
0.13604818 -0.024835557 1.4530888 -0.16476658 0.21276644 1.3067492 0.12639983 0.29576185
0.08987711 -0.004815808 -0.024074338 -0.026421435 -0.08664911 0.3498202 -0.013616096 0.5510905
1.5397722 0.20623045 1.7509097 1.507174 0.051257156 0.3441203 0.025869904 0.07012782
-0.012644766 0.3042786 -0.24221183 0.023122288 -0.032469004 1.1479682 0.4295786 0.002430998
-0.036467336 0.3565045 0.014664878 -0.029657645 0.01617611 -0.04733582 -0.019105641 -0.01660359
00000000: 6104 3c3e 4b6c 4c3f 655c 863e 43fd 1f3f
00000010: 9268 193f a3ff 623c aded a13c 1a76 3fbc
00000020: 3420 b03d c440 0d3f 8cec 423f 9409 d33f
00000030: 3d0a 1a3b 77cb 5b3f c8ce 833f dfbe 5cbc
00000040: c303 efbc 1ad9 92be 643c 473b 7dce 1d3f
00000050: d00f 6b3f b689 0d3f e822 e43c aba2 043f
00000060: c378 fcbc 2961 033d 9d8d 1ebd 4eb6 1e3e
00000070: 93b3 cc3f 6cb1 f03e 09bf 643f 0145 23be
00000080: 421a 693f 54e5 0c3f 19c7 ae3f ad8c a13c
00000090: fd34 41bc e148 e03e 6cff 533f 4b3a 5f3e
000000a0: 3a07 2d3d 1aaa 88bc 4910 bfbc 7e15 463f
000000b0: 7f60 efbf aaa9 9d3e 387f 343c d3af b6bc
000000c0: e923 ac3f cee8 bd3f 5762 c43e 42d9 6f3f
000000d0: 4629 6a3f 2041 de3d 9009 41be 6df4 823d
000000e0: 3568 bf3d 0443 923f d8d2 3c3c 2dfd edbc
000000f0: 850b 323d c57a 38bc 27df 3c3e 7d52 2e3c
00000100: 0ee7 09be b3a1 c33f 1f64 95bc 6ffe 5a3f
00000110: 7bac 03be fb57 5b3e f8e1 543f fda8 593f
00000120: 7a6a 6f3f 5fd4 a93d 05d3 9d3f bcb7 3b3f
00000130: dcc3 843f 0072 bc3d d290 59be 250f 563c
00000140: 8cd5 35be def3 d3bd 9f79 ecbc 212e 343f
00000150: 26e3 703f fa70 9c3f efa8 44bd 5649 3c3f
00000160: 3750 0b3e f073 cbbc d0fe b93f 92b8 28be
00000170: 72df 593e 8f43 a73f f56e 013e 196e 973e
00000180: 7e11 b83d edcd 9dbb 8c37 c5bc c471 d8bc
00000190: 1775 b1bd a21b b33e 0c16 5fbc 4414 0d3f
000001a0: 4117 c53f 132e 533e cf1d e03f 14eb c03f
000001b0: 06f3 513d 8930 b03e 1fed d33c 2d9f 8f3d
000001c0: fe2b 4fbc 68ca 9b3e 6106 78be f46a bd3c
000001d0: 38fe 04bd 9ff0 923f baf1 db3e 6151 1f3b
000001e0: c65e 15bd c287 b63e f544 703c 97f4 f2bc
000001f0: c383 843c 34e3 41bd 6f83 9cbc 4104 88bc

encoder_output_layer.weight f4 [128, 128]
0.009184475 0.036750898 0.012801278 0.24778475 0.1280041 0.023256678 -0.017752508 -0.015189336
-0.08870866 -0.10242478 -0.06556147 -0.03007417 -0.0046097874 -0.14484082 -0.011831464 0.07948619
0.00033138978 -0.09717553 -0.07138681 0.10881932 -0.07139656 -0.001522208 0.045958605 0.009185792
-0.064910516 -0.03071071 -0.0024424598 0.017669093 -0.0734676 0.0051578046 -0.033032544 -0.04965097
0.047644317 0.054222174 0.1144584 -0.06813505 0.07330097 0.07570044 0.10485948 0.060925033
0.104672514 0.033523686 -0.10303344 -0.11770127 0.20602521 0.0012502844 -0.08222157 -0.016877238
-0.020928157 0.005166808 0.032298457 0.041559443 -0.20018192 0.019141685 0.08040154 -0.040401526
-0.031434484 0.14802468 -0.033039246 0.054925315 0.040353063 0.05977489 -0.03170628 -0.00032785648
-0.10093672 0.058670532 -0.02993397 0.0830462 -0.16404222 -0.025739457 0.105529755 -0.08679169
0.18877225 -0.08477679 -0.072171755 0.10720655 0.008910296 -0.011633332 0.09434378 0.030544592
0.07764321 0.071612224 -0.06662077 0.09754239 -0.083628245 0.011508207 0.0073666065 -0.061886214
-0.007502156 0.046963774 -0.028286481 -0.06385378 0.00060043036 -0.03512217 0.0033669705 0.013206939
0.004784446 -0.047787428 0.02045555 -0.0652852 0.05037954 -0.097757354 -0.057128407 -0.015802639
-0.07649148 0.021745963 0.049948 -0.054925762 0.08586504 -0.11396167 -0.08383446 -0.11841574
0.08838863 0.005284722 0.091513686 0.014436248 0.0062397593 0.023672434 -0.036122117 0.030685814
-0.02335181 -0.0709132 0.02474548 0.05665287 0.012013399 -0.04085968 0.006573713 -0.02722742
0.091737136 -0.053583488 -0.03755075 0.051045895 -0.17806225 0.006691081 0.040283278 -0.0874334
0.15919933 0.11061067 -0.13333319 0.028686687 -0.041947212 0.05732306 -0.07443 0.06352843
-0.00992652 0.016605113 0.09728694 -0.14152646 -0.04256392 -0.12718254 -0.057454374 -0.1118615
-0.0026410297 -0.022538628 0.004374617 5.3920667e-05 0.15281627 0.040362593 -0.049942642 -0.12767869
0.050045412 0.20720734 0.15614095 -0.021663949 -0.10510425 -0.08670036 -0.13725998 -0.0022677681
-0.018498423 -0.04516848 -0.055815686 -0.28621158 -0.114513285 -0.062543534 0.07465257 0.028347816
-0.10665641 0.024887351 -0.08320884 0.07870962 -0.27746996 0.049218785 -0.015408151 -0.019683795
0.08572477 0.15500113 0.07112151 -0.052180395 -0.009551339 -0.026893243 0.16966416 -0.048660632
0.014018516 -0.104361035 -0.0676097 0.0528341 -0.070742235 0.13349621 -0.020284548 -0.069328226
-0.10137554 0.23518969 -0.040678095 0.039418958 -0.011270135 0.074708566 0.0629383 0.0028166056
-0.008417709 -0.08285886 0.049707502 0.06998176 0.13226452 -0.18889928 0.08499427 0.021878768
-0.06999078 0.08780516 -0.01595024 -0.14975347 0.16703656 -0.15023413 -0.059064697 0.05143255
0.17672345 0.01380908 0.07529769 -0.03014715 -0.15286586 0.03173681 -0.06539453 0.1463735
-0.018792193 0.0909317 0.45268843 -0.05948161 -0.100262135 0.07806238 0.039670274 0.10752189
-0.05556171 0.0142479185 -0.006689895 0.04167328 0.079731315 0.1331351 0.2095579 -0.00024740092
-0.0065513123 0.043472532 0.07648717 0.09939336 -0.03185011 -0.048871063 0.018444432 0.04399531
00000000: 7b7a 163c 1c88 163d 74bc 513c 49bb 7d3e
00000010: 8213 033e ca84 be3c b56d 91bc b1dc 78bc
00000020: e3ac b5bd 15c4 d1bd 1845 86bd 1b5e f6bc
00000030: b30d 97bb 2751 14be c2d8 41bc a8c9 a23d
00000040: 62be ad39 f703 c7bd 3f33 92bd aadc de3d
00000050: 5c38 92bd d384 c7ba 173f 3c3d 0180 163c
00000060: ceef 84bd 0795 fbbc ad11 20bb c6be 903c
00000070: 2e76 96bd cd02 a93b 224d 07bd d15e 4bbd
00000080: b026 433d 1218 5e3d 2a69 ea3d 648a 8bbd
00000090: d21e 963d d508 9b3d 91c0 d63d 878c 793d
000000a0: 8b5e d63d 2250 093d 3203 d3bd 5d0d f1bd
000000b0: 46f8 523e 95e0 a33a c863 a8bd 2242 8abc
000000c0: 8771 abbc 544e a93b 634b 043d 3c3a 2a3d
000000d0: 7dfc 4cbe 06cf 9c3c 90a9 a43d 127c 25bd
000000e0: 72c1 00bd c893 173e 2954 07bd 5ef9 603d
000000f0: 4149 253d 84d6 743d 72de 01bd 27e4 abb9
00000100: e9b7 cebd 8350 703d 1638 f5bc 2014 aa3d
00000110: affa 27be 8edb d2bc fc1f d83d d7bf b1bd
00000120: 834d 413e 749f adbd c9ce 93bd 1c8f db3d
00000130: 7dfc 113c bb99 3ebc 5037 c13d a738 fa3c
00000140: 6703 9f3d 6ea9 923d 7870 88bd 4ec4 c73d
00000150: 4945 abbd eb8c 3c3c 9363 f13b 667c 7dbd
00000160: a5d4 f5bb 165d 403d 0db9 e7bc c5c5 82bd
00000170: 3366 1d3a 44dc 0fbd 64a8 5c3b eb61 583c
00000180: d8c6 9c3b c0bc 43bd 6692 a73c 3fb4 85bd
00000190: c75a 4e3d 0235 c8bd 7aff 69bd 8974 81bc
000001a0: 91a7 9cbd 9724 b23c 4696 4c3d d6f9 60bd
000001b0: 03da af3d bc64 e9bd 67b1 abbd f483 f2bd
000001c0: 1905 b53d 762b ad3b 876b bb3d 0386 6c3c
000001d0: e576 cc3b b1ec c13c c9f4 13bd d160 fb3c
000001e0: 4c4c bfbc f13a 91bd 08b7 ca3c d70c 683d
000001f0: d9d3 443c 7b5c 27bd 4d68 d73b 0a0c dfbc
00000200: aee0 bb3d 5c7a 5bbd d1ce 19bd 8015 513d
00000210: f355 36be db40 db3b 1400 253d 4810 b3bd
00000220: 2605 233e d987 e23d 7f88 08be 5800 eb3c
00000230: d7d0 2bbd 96cb 6a3d c16e 98bd 321b 823d
00000240: d8a2 22bc 7207 883c 603e c73d 50ec 10be
00000250: 8157 2ebd 243c 02be 4755 6bbd a417 e5bd
00000260: 2015 2dbb eea2 b8bc f258 8f3b e028 6238
00000270: de7b 1c3e 3f53 253d a890 4cbd 34be 02be
00000280: 6bfc 4c3d 292e 543e 6ae3 1f3e 9878 b1bc
00000290: e640 d7bd f58f b1bd e18d 0cbe d69e 14bb
000002a0: 018a 97bc 9602 39bd fd9e 64bd 538a 92be
000002b0: f185 eabd d316 80bd 72e3 983d ae39 e83c
000002c0: ad6e dabd 8fe0 cb3c 6569 aabd 8232 a13d
000002d0: 8b10 8ebe a399 493d 7872 7cbc e93f a1bc
000002e0: 7890 af3d 9eb8 1e3e 27a8 913d 1cbb 55bd
000002f0: 387d 1cbc 384f dcbc 71bc 2d3e 5f50 47bd
00000300: ebad 653c 3dbb d5bd f476 8abd 9268 583d
00000310: 4ee1 90bd 3bb3 083e c82b a6bc f5fb 8dbd
00000320: fb9d cfbd 91d5 703e 139e 26bd c675 213d
00000330: 5fa6 38bc ce00 993d cce5 803d cd96 383b
00000340: 6eea 09bc e8b1 a9bd 189a 4b3d 9952 8f3d
00000350: 5a70 073e d06e 41be 7a11 ae3d 1a3b b33c
00000360: 5357 8fbd 31d3 b33d 14aa 82bc f958 19be
00000370: a20b 2b3e fad6 19be d3ed 71bd f0aa 523d
00000380: fef6 343e 7b3f 623c ad35 9a3d 28f7 f6bc
00000390: de88 1cbe 75fe 013d 91ed 85bd efe2 153e
000003a0: 16f2 99bc 663a ba3d c7c6 e73e fda2 73bd
000003b0: 3c56 cdbd 2bdf 9f3d 4c7d 223d 7034 dc3d
000003c0: ad94 63bd 1a70 693c e836 dbbb 9ab1 2a3d
000003d0: 2c4a a33d 9154 083e 5996 563e 97b5 81b9
000003e0: 64ac d6bb 4110 323d 4ea5 9c3d bf8e cb3d
000003f0: 4375 02bd 062d 48bd c718 973c 6d34 343d

encoder_output_layer.bias f4 [128]
-0.16164817 0.19145925 -0.047130994 0.012570296 0.39721742 0.30496734 0.19855289 -0.06524108
0.04347162 0.0547873 -0.08994877 -0.15663603 -0.29132912 -0.33320248 -0.067484014 -0.20674443
0.08134052 -0.20579366 0.12980415 0.06180069 0.13014093 0.20858666 -0.042376623 0.0866054
-0.4232518 0.15026945 -0.27097952 -0.067817554 0.122999154 -0.15749367 0.06395183 -0.69123435
-0.40920463 -0.043497685 -0.13869423 1.4429046 -0.16319916 -0.2856504 -0.20034306 0.13371977
-0.037678346 0.46863845 0.3415856 -0.1784877 0.154181 0.13670501 0.17493051 0.18613628
0.16081822 0.6151895 -0.20731476 -0.05490856 0.0151216 0.096948385 0.15096405 -0.38345245
0.11477069 0.24234533 0.11707752 0.3722184 0.13928874 -0.20983382 0.0014826956 0.22606309
-0.00097472646 0.20023745 0.28032568 0.16851187 0.069920264 -0.27080125 -0.113347046 -0.018090235
0.021869153 0.1461064 -0.15595552 -0.019715613 0.059303816 0.22815056 0.051918752 -0.14685108
0.020586815 0.26577267 0.38168 -0.08939538 0.05108221 0.0012557288 -0.054373603 0.21108401
0.031872243 -0.5792173 -0.3339377 0.24322455 0.050137375 0.017879214 0.076229945 -0.09018049
0.44839653 -0.35298106 0.0765242 0.052600384 -0.029127492 -0.10954448 0.21940742 -0.13056631
0.3301532 0.04445691 -0.07391586 -0.10656514 -0.13114661 0.12327064 0.14121708 -0.039679397
-0.07980673 0.1175676 0.010468742 0.3400238 -0.2512593 -0.10566575 0.08896304 0.11107704
-0.09102522 -0.20481499 -0.1720578 -0.075221494 -0.2626112 -0.0074663786 0.030577706 -0.07297803
00000000: 1987 25be e50d 443e 6e0c 41bd a5f3 4d3c
00000010: 1560 cb3e ae24 9c3e 7351 4b3e 1e9d 85bd
00000020: 4c0f 323d a668 603d 1037 b8bd 3265 20be
00000030: 1729 95be 8499 aabe 0f35 8abd d0b4 53be
00000040: dc95 a63d 93bb 52be 61eb 043e b822 7d3d
00000050: aa43 053e be97 553e 1c93 2dbd 2c5e b13d
00000060: 76b4 d8be 3ce0 193e d4bd 8abe eee3 8abd
00000070: fbe6 fb3d 0546 21be 2df9 823d bcf4 30bf
00000080: 4583 d1be a12a 32bd dc05 0ebe 19b1 b83f
00000090: ae1d 27be c540 92be bb26 4dbe d6ed 083e
000000a0: 9c54 1abd 61f1 ef3e 4fe4 ae3e 7bc5 36be
000000b0: a0e1 1d3e 66fc 0b3e fc20 333e 829a 3e3e
000000c0: 88ad 243e 0f7d 1d3f 524a 54be cce7 60bd
000000d0: 96c0 773c e08c c63d 5296 1a3e e153 c4be
000000e0: e50c eb3d 6029 783e 57c6 ef3d 6993 be3e
000000f0: b5a1 0e3e adde 56be 0257 c23a 157d 673e
00000100: c984 7fba 0c0b 4d3e d986 8f3e 608e 2c3e
00000110: 5b32 8f3d 76a6 8abe 7f22 e8bd f931 94bc
00000120: f026 b33c eb9c 153e ceb2 1fbe a382 a1bc
00000130: 8fe8 723d 4da0 693e c2a8 543d 2160 16be
00000140: aea5 a83c 5b13 883e 906b c33e ed14 b7bd
00000150: 943b 513d 4497 a43a dbb6 5ebd 6826 583e
00000160: 788c 023d 9647 14bf e2f9 aabe db0f 793e
00000170: d95c 4d3d 6e77 923c 721e 9c3d 8cb0 b8bd
00000180: 3b94 e53e efb9 b4be b8b8 9c3d 8073 573d
00000190: c79c eebc db58 e0bd 57ac 603e 2db3 05be
000001a0: d709 a93e 7318 363d 3361 97bd d33e dabd
000001b0: 4c4b 06be 5175 fc3d 369b 103e dd86 22bd
000001c0: b671 a3bd 48c7 f03d 1685 2b3c 9917 ae3e
000001d0: 0fa5 80be 4967 d8bd 4132 b63d 5c7c e33d
000001e0: 6e6b babd 05bb 51be ec2f 30be ba0d 9abd
000001f0: fa74 86be 86a8 f4bb 197e fa3c 8175 95bd

decoder_hidden_layer.weight f4 [128, 128]
-0.016742859 -0.08344825 0.022712203 -0.09871654 0.02098471 -0.03844151 -0.028143894 -0.09308288
-0.03580103 -0.0035589128 0.028922044 0.01636845 -0.07243841 0.049150113 0.013868556 0.057124496
0.06317522 -0.030367134 -0.095623486 -0.024696648 -0.022429442 -0.013908139 0.039983768 0.02423947
0.037289508 -0.07181709 0.071242936 -0.08766646 0.028105348 -0.07025736 -0.04726362 0.07153922
0.020766815 -0.06545944 -0.056915544 -0.03540163 -0.08013092 -0.0484882 -0.03266667 -0.009267737
0.052800674 0.04215085 0.00072205 -0.093711615 -0.08075044 0.062445566 -0.006620223 -0.013777041
-0.017216766 0.059093654 -0.06468101 -0.016423488 -0.039500136 0.044907518 -0.05180404 0.06382835
0.03166533 -0.078768626 -0.046766497 -0.06337494 0.01823427 -0.01327237 -0.0366861 -0.07374838
-0.089877546 0.07171747 -0.092923604 -0.08449968 -0.006385381 -0.07439227 0.056733586 -0.0264628
-0.044952404 0.026146129 -0.05757526 -0.059375573 0.047511436 -0.061112583 0.016187504 0.04103196
0.01526283 -0.048521344 -0.0023580808 0.0021201647 -0.052776597 -0.05995672 0.01656538 -0.06430006
-0.0050781677 0.016388396 0.017670637 -0.05988874 0.049078055 -0.041413967 0.036109343 -0.09155812
0.0007642464 0.07327702 0.023034653 0.052910663 -0.028159048 0.005516647 -0.002939554 -0.021749618
0.03512705 0.0554428 -0.0933759 0.045788042 -0.018382652 0.0035459085 0.024986265 -0.061808944
0.012942326 -0.0900083 0.03357044 -0.058147788 0.008270756 -0.07998761 -0.05963975 -0.059907366
0.06097062 -0.0897698 -0.055231262 0.07423671 -0.08781884 0.037005994 -0.013314185 -0.02889491
-0.07461993 0.036334895 0.041609842 -0.05343584 -0.011483947 -0.07167501 -0.01807719 0.06048593
-0.08762273 -0.06262975 0.027579678 -0.025511855 0.033661373 0.042957146 -0.0065537714 -0.06099649
-0.086718746 0.06653497 -0.04758071 0.01667801 0.037489794 0.070424184 -0.053903997 0.030331058
0.06556789 -0.043041978 -0.012855971 -0.0321684 -0.08029967 0.0035210673 -0.0024363426 0.028727239
-0.037229814 -0.026352061 0.061788555 0.045519993 -0.08935343 -0.011880888 -0.0656256 -0.044982515
-0.046631776 -0.07840257 -0.060694866 0.06585935 -0.08199806 -0.06754589 -0.007904587 -0.10387321
-0.01969115 -0.009511083 -0.09742534 0.056536905 -0.086515374 -0.054252952 0.03453659 0.04517035
-0.04745649 -0.07357703 -0.096510954 -0.01394679 0.0063038096 -0.041547738 -0.03122643 -0.0811592
0.00012448877 -0.0067288126 -0.038629316 -0.078290336 -0.07872233 0.023996996 -0.058498517 -0.062928796
-0.04426016 -0.062015787 -0.005980698 0.065529354 -0.039259605 -0.04366298 -0.012023196 -0.009881536
-0.08094211 -0.019834915 0.05080301 -0.06818666 -0.009182204 -0.035292752 0.08328148 -0.085340194
0.037350055 0.036650322 0.0068010683 0.059841204 -0.024358448 -0.0084885275 -0.024083091 0.011448147
0.047207907 -0.0474158 -0.027041031 -0.007763168 0.05091653 -0.08805132 -0.04831919 0.053647336
-0.06500791 0.058907796 -0.040150948 -0.085521385 -0.047651626 0.012740325 -0.10103864 -0.020676162
-0.014298749 0.025357815 -0.09576419 -0.08303341 -0.060746323 -0.09754241 -0.040584385 -0.06458263
0.04956916 0.020471144 -0.048505373 0.01031158 0.032160733 -0.04265344 -0.06791725 0.067617826
00000000: 5228 89bc ebe6 aabd f10e ba3c e62b cabd
00000010: 20e8 ab3c d874 1dbd 068e e6bc 3da2 bebd
00000020: 1aa4 12bd a63c 69bb eced ec3c 2117 863c
00000030: 975a 94bd a151 493d f138 633c 60fb 693d
00000040: 0262 813d 7fc4 f8bc 3fd6 c3bd a050 cabc
00000050: f3bd b7bc f7de 63bc 05c6 233d da91 c63c
00000060: e2bc 183d d714 93bd d1e7 913d 798a b3bd
00000070: 303d e63c 17e3 8fbd 7f97 41bd 2883 923d
00000080: 2b1f aa3c 990f 86bd 4620 69bd 4d01 11bd
00000090: ae1b a4bd 909b 46bd 7ccd 05bd b5d7 17bc
000000a0: 8545 583d 5fa6 2c3d f547 3d3a e0eb bfbd
000000b0: 7d60 a5bd ecc6 7f3d 75ee d8bb 19b9 61bc
000000c0: 2d0a 8dbc 300c 723d 7a77 84bd 8d8a 86bc
000000d0: e5ca 21bd f2f0 373d 7930 54bd 70b8 823d
000000e0: 81b3 013d 7251 a1bd 3a8e 3fbd b8ca 81bd
000000f0: 0960 953c 5b74 59bc 2a44 16bd 6409 97bd
00000100: b811 b8bd 9ce0 923d bb4e bebd 2b0e adbd
00000110: 753c d1bb f95a 98bd 7a61 683d 84c8 d8bc
00000120: 0320 38bd 6830 d63c 09d4 6bbd cd33 73bd
00000130: 5a9b 423d 3051 7abd a89b 843c 2111 283d
00000140: f310 7a3c 51be 46bd 088a 1abb 76f2 0a3b
00000150: 462c 58bd 2d95 75bd 1fb4 873c c0af 83bd
00000160: c266 a6bb f540 863c 03c2 903c e54d 75bd
00000170: 1206 493d b1a1 29bd 64e7 133d d382 bbbd
00000180: b557 483a 4312 963d 2bb3 bc3c dab8 583d
00000190: cead e6bc fdc4 b43b 88a5 40bb 412c b2bc
000001a0: 62e1 0f3d fd17 633d dd3b bfbd 3e8c 3b3d
000001b0: 3797 96bc 7962 683b ffaf cc3c 602b 7dbd
000001c0: 0d0c 543c 4656 b8bd 2881 093d 602c 6ebd
000001d0: 1182 073c 8bd0 a3bd cf48 74bd 6d61 75bd
000001e0: 54bc 793d 3bd9 b7bd 2d3a 62bd 6b09 983d
000001f0: 5dda b3bd 9993 173d bd23 5abc 05b5 ecbc
00000200: 55d2 98bd e6d3 143d 156f 2a3d 8adf 5abd
00000210: 2a27 3cbc 59ca 92bd 9d16 94bc 18c0 773d
00000220: 8c73 b3bd 0744 80bd c7ee e13c 3dfe d0bc
00000230: 82e0 093d d5f3 2f3d 05c1 d6bb 75d7 79bd
00000240: 9999 b1bd 7d43 883d fee3 42bd 52a0 883c
00000250: e68e 193d 8e3a 903d 70ca 5cbd d778 f83c
00000260: 7548 863d c94c 30bd daa1 52bc 03c3 03bd
00000270: 2774 a4bd b5c1 663b 0cab 1fbb 6355 eb3c
00000280: 4a7e 18bd 47e0 d7bc ff15 7d3d 2c73 3a3d
00000290: eefe b6bd 0ea8 42bc b766 86bd 963f 38bd
000002a0: f600 3fbd 8791 a0bd 2e9b 78bd 44e1 863d
000002b0: 99ee a7bd 8055 8abd 3e82 01bc 7abb d4bd
000002c0: 564f a1bc 60d4 1bbc f086 c7bd 3e93 673d
000002d0: f92e b1bd 5838 5ebd 3d76 0d3d 8b04 393d
000002e0: bd61 42bd 8eaf 96bd 89a7 c5bd 1481 64bc
000002f0: 3090 ce3b f62d 2abd 92ce ffbc cb36 a6bd
00000300: 3389 0239 5f7d dcbb c639 1ebd af56 a0bd
00000310: 2c39 a1bd 5995 c43c 249c 6fbd d0e0 80bd
00000320: 244a 35bd 4404 7ebd bbf9 c3bb 4134 863d
00000330: aece 20bd f4d7 32bd f0fc 44bc 2ae6 21bc
00000340: fac4 a5bd d57c a2bc d116 503d 73a5 8bbd
00000350: f470 16bc 228f 10bd 7b8f aa3d d7c6 aebd
00000360: 5ffc 183d a61e 163d 7fdb de3b 0d1c 753d
00000370: 5e8b c7bc 7713 0bbc e749 c5bc 0291 3b3c
00000380: 145d 413d 1237 42bd 2785 ddbc 2c62 febb
00000390: da8d 503d 4054 b4bd 58ea 45bd 4fbd 5b3d
000003a0: de22 85bd 4d49 713d 5275 24bd d625 afbd
000003b0: 5a2e 43bd ccbc 503c 59ed cebd 0e61 a9bc
000003c0: 4d45 6abc 31bb cf3c 0420 c4bd 6c0d aabd
000003d0: 23d1 78bd 51c4 c7bd d03b 26bd e643 84bd
000003e0: 0809 4b3d 1ab3 a73c 92ad 46bd e7f1 283c
000003f0: f9ba 033d 60b5 2ebd 3318 8bbd 377b 8a3d

decoder_hidden_layer.bias f4 [128]
-0.030658644 -0.017259458 -0.014260324 0.017033517 -0.07284307 -0.026922861 -0.06035076 0.060846362
0.13246489 -0.030570917 -0.083992176 0.042569797 0.14224078 -0.085279614 -0.1530754 0.08285024
0.09747992 0.051360723 -0.052332852 0.130874 0.009545805 -0.04509583 0.05827077 0.23341784
-0.068582416 0.022611564 -0.022467092 0.05700166 -0.08620612 0.06173821 0.2235343 0.10751841
-0.05319954 0.07358528 -0.09654538 0.18390477 -0.009241176 0.046806335 0.18028949 -0.037822984
0.012089834 -0.002414671 -0.058475327 -0.059176043 0.070655175 0.15177986 -0.064170465 0.19190428
0.0705599 0.04600903 0.09984535 -0.06661627 0.027121527 0.060152587 -0.020730866 -0.086332195
0.15479884 -0.0017820778 0.008561246 -0.013706532 -0.06815841 0.14016838 -0.0022917427 0.023914926
-0.053378645 -0.018828847 0.036552705 -0.052401558 0.055415485 -0.031217549 -0.039255228 -0.023752138
0.046058632 -0.0057072323 0.14678168 0.13081127 0.061393593 -0.03660709 -0.032455586 0.05320373
0.17590438 -0.020694688 0.01573242 -0.05282042 0.039771322 0.02831342 -0.025242615 -0.020918382
0.03287662 0.01855522 0.041658618 0.059925172 -0.102561034 -0.074093156 -0.016488876 -0.052274127
-0.09849963 0.091893785 0.0021482448 -0.026148962 -0.062496413 -0.02792444 0.05929857 -0.08578188
0.007896851 0.062086012 0.08275894 -0.0581455 0.048963048 -0.084958285 0.03963659 0.0025809924
0.04553999 -0.037730332 0.035393417 0.06892764 0.0874254 0.03291089 -0.017426267 -0.029114632
0.035461705 0.012012296 0.054133713 0.00086573535 -0.027744569 -0.006339609 -0.16322652 -0.019668275
00000000: d627 fbbc b563 8dbc 22a4 69bc e089 8b3c
00000010: bf2e 95bd 558d dcbc 5c32 77bd 093a 793d
00000020: e0a4 073e dc6f fabc 1704 acbd ab5d 2e3d
00000030: 91a7 113e 14a7 aebd ccbf 1cbe 63ad a93d
00000040: 8da3 c73d 9f5f 523d f95a 56bd d503 063e
00000050: 0266 1c3c 68b6 38bd 55ad 6e3d 1605 6f3e
00000060: f074 8cbd e33b b93c e80c b8bc 937a 693d
00000070: d68c b0bd 35e1 7c3d 2de6 643e 9d32 dc3d
00000080: c3e7 59bd e1b3 963d 96b9 c5bd 8851 3c3e
00000090: 4d68 17bc 00b8 3f3d cf9d 383e 46ec 1abd
000000a0: 7014 463c 753f 1ebb d383 6fbd 9462 72bd
000000b0: a9b3 903d 2e6c 1b3e ce6b 83bd 8e82 443e
000000c0: b581 903d f773 3c3d b87b cc3d 1c6e 88bd
000000d0: f72d de3c 8f62 763d c7d3 a9bc efce b0bd
000000e0: 9683 1e3e 9c94 e9ba 7844 0c3c 5d91 60bc
000000f0: a396 8bbd 4d88 0f3e 1031 16bb 3ce9 c33c
00000100: 91a3 5abd f43e 9abc 4ab8 153d 04a3 56bd
00000110: 59fb 623d f2bb ffbc 17ca 20bd d893 c2bc
00000120: faa7 3c3d bc03 bbbb f04d 163e 64f3 053e
00000130: d977 7b3d 51f1 15bd 26f0 04bd 28ec 593d
00000140: 4720 343e e887 a9bc 47e1 803c 3a5a 58bd
00000150: 41e7 223d 8cf1 e73c 9ac9 cebc 075d abbc
00000160: a2a9 063d 1e01 983c 3aa2 2a3d 1974 753d
00000170: 850b d2bd 27be 97bd ae13 87bc 651d 56bd
00000180: 2dba c9bd cf32 bc3d 91c9 0c3b 5936 d6bc
00000190: 3dfc 7fbd ccc1 e4bc 0fe3 723d 69ae afbd
000001a0: cb61 013c e74d 7e3d 857d a93d fa29 6ebd
000001b0: 7a8d 483d 9cfe adbd fa59 223d de25 293b
000001c0: 2488 3a3d 1f8b 1abd b0f8 103d ef29 8d3d
000001d0: 170c b33d 92cd 063d 88c1 8ebc cf81 eebc
000001e0: 4b40 113d 39cf 443c 50bb 5d3d 84f2 623a
000001f0: 9448 e3bc 7fbc cfbb da24 27be 5d1f a1bc

decoder_output_layer.weight f4 [784, 128]
-0.06084732 0.06972956 -0.030187964 -0.09548843 -0.0606482 0.032917775 -0.01867464 -0.020658445
-0.20488462 0.026167993 0.024359262 0.065478854 0.0073854052 -0.045426704 -0.07813916 0.012807287
0.016129896 0.08805155 0.005995294 0.025189206 -0.09602016 -0.002203215 -0.2875672 -0.067608565
-0.08782643 -0.034062877 -0.019914193 -0.11161411 0.02858347 -0.042077344 -0.067982815 -0.09253756
-0.04110503 -0.07168295 0.041162625 -0.071362145 0.04462627 -0.007186432 -0.09622958 -0.093398005
0.02749737 -0.04766268 0.0757025 -0.05607528 -0.029507289 -0.04052055 0.020887163 -0.025361655
-0.0870802 -0.04457705 0.04752772 -0.097501464 -0.0037873925 -0.27442595 -0.051983282 0.009037489
-0.111164466 0.038983915 -0.03490503 -0.070345804 0.06407028 -0.07486386 -0.054822393 0.0704968
-0.027668508 0.07676807 -0.071926236 -0.012642654 -0.040179137 -0.040921368 -0.08165483 -0.001184094
0.0033086396 0.05114047 0.025671145 -0.0046032704 -0.01625749 0.040652562 0.0017466332 0.019465366
-0.004722712 -0.07677048 -0.047474734 0.021293093 0.018575517 -0.1162557 0.040966265 0.0058608223
-0.08989029 -0.083115764 0.007165562 0.0793616 0.05772855 -0.079213895 -0.047035262 -0.10785698
0.053078856 -0.0062185577 -0.061519135 -0.056351878 -0.0779805 -0.19391716 -0.055173595 -0.018088443
0.023778377 0.00353527 0.001937117 0.041650992 -0.0799661 0.049975805 -0.104799636 -0.036593873
-0.029805062 -0.14597325 -0.06995138 -0.084226 0.00021818517 -0.35163292 0.06717695 -0.067138165
0.004207519 -0.04680911 -0.06224512 -0.002211898 -0.08179835 -0.010062905 -0.0084360875 -0.016698971
-0.023864187 -0.03083768 0.05833448 0.044504594 0.0030732057 0.009915673 -0.08674664 -0.06706006
-0.17184722 -0.03360508 -0.037570436 0.032988172 0.016752731 -0.06620799 0.037529692 -0.081556894
-0.067083925 -0.07661677 -0.0834669 -0.083499335 -0.011908931 -0.069491595 -0.2524811 -0.043701105
-0.041161034 0.05199637 0.03607088 -0.12340223 -0.07115471 -0.020533022 -0.007322181 -0.091421045
0.06881821 0.044142924 0.053683963 -0.16224852 0.037979007 0.014176591 -0.02577037 -0.001128053
-0.047629774 0.06647661 -0.052115116 -0.026895696 0.03892649 -0.070555486 -0.09007831 -0.041329224
-0.048990507 -0.07671478 -0.08022648 -0.07659252 0.031785253 -0.26589167 -0.036199078 -0.06143446
-0.010545069 0.04546998 -0.05654258 -0.028814493 -0.0067182076 0.013666678 -0.03617696 0.067662604
0.009912909 -0.08536122 -0.108586326 0.016333465 -0.024405802 0.020306831 -0.08142514 0.022519441
-0.08452978 0.027844768 0.03884576 0.04553409 0.048956946 -0.00456455 -0.06608274 -0.0017883155
0.009371285 -0.06753941 -0.043447874 -0.0128899915 -0.047400866 -0.03425208 -0.089017786 -0.0886856
-0.07898549 -0.030601224 -0.12012868 0.04572919 -0.011910314 -0.09887907 0.034308285 0.05190457
0.07952567 0.04506435 -0.01743606 0.042405915 -0.0982597 -0.11450128 -0.0366851 -0.009044565
-0.06947027 -0.025345767 -0.11323119 0.006039744 0.058607817 -0.05892025 -0.11668964 -0.03013311
-0.070285186 -0.23201628 -0.0065273247 0.0023098958 -0.015809221 -0.29097167 0.023443686 0.01827993
-0.056103732 -0.097110055 0.009388402 -0.055251442 -0.047427595 -0.0051909215 -0.05797454 -0.08393141
00000000: 0a3b 79bd 5fce 8e3d c04c f7bc 708f c3bd
00000010: 3f6a 78bd cad4 063d 8ffb 98bc e63b a9bc
00000020: 46cd 51be 425e d63c 138d c73c c719 863d
00000030: 4501 f23b 5a11 3abd 6d07 a0bd a8d5 513c
00000040: d822 843c 5f54 b43d 2c74 c43b 9859 ce3c
00000050: 38a6 c4bd d063 10bb 023c 93be 5c76 8abd
00000060: 58de b3bd 8485 0bbd 1723 a3bc f095 e4bd
00000070: e227 ea3c 4b59 2cbd 933a 8bbd 5584 bdbd
00000080: bf5d 28bd 83ce 92bd 249a 283d 5126 92bd
00000090: 09ca 363d 297c ebbb 0414 c5bd 7447 bfbd
000000a0: 2a42 e13c f139 43bd ea09 9b3d 31af 65bd
000000b0: 45b9 f1bc e0f8 25bd 8e1b ab3c 3fc3 cfbc
000000c0: 1b57 b2bd 6d96 36bd 6dac 423d d9ae c7bd
000000d0: e735 78bb 8f81 8cbe 6cec 54bd fa11 143c
000000e0: 32aa e3bd 99ad 1f3d 94f8 0ebd 7611 90bd
000000f0: 4737 833d 3952 99bd 728d 60bd a060 903d
00000100: 11a9 e2bc 9438 9d3d 104e 93bd 2223 4fbc
00000110: e192 24bd 2a9d 27bd a63a a7bd 9a33 9bba
00000120: c3d5 583b ab78 513d 4b4c d23c 08d7 96bb
00000130: 6d2e 85bc 4d83 263d 49ef e43a d575 9f3c
00000140: fbc0 9abb d739 9dbd de74 42bd da6e ae3c
00000150: af2b 983c 7817 eebd 3ecc 273d 240c c03b
00000160: 6618 b8bd 9938 aabd 17cd ea3b 5688 a23d
00000170: c674 6c3d e53a a2bd 0ca8 40bd 1fe4 dcbd
00000180: 3769 593d 0bc5 cbbb 7dfb 7bbd 3ad1 66bd
00000190: 3eb4 9fbd 3892 46be b5fd 61bd 372e 94bc
000001a0: dfca c23c fdaf 673b dce6 fd3a 3b9a 2a3d
000001b0: 44c5 a3bd 6eb3 4c3d 31a1 d6bd 75e3 15bd
000001c0: bf29 f4bc 037a 15be ab42 8fbd ae7e acbd
000001d0: a3c8 6439 3b09 b4be 1294 893d bc7f 89bd
000001e0: 3adf 893b e9ba 3fbd bdf4 7ebd 7ef5 10bb
000001f0: e585 a7bd e2de 24bc 8437 0abc 48cc 88bc
00000200: d47e c3bc 4d9f fcbc 23f0 6e3d 734a 363d
00000210: d667 493b 5975 223c 39a8 b1bd c956 89bd
00000220: b8f8 2fbe 7ba5 09bd 75e3 19bd 9b1e 073d
00000230: 063d 893c 0e98 87bd bcb8 193d 4d07 a7bd
00000240: 4c63 89bd 41e9 9cbd b2f0 aabd b301 abbd
00000250: ad1d 43bc 9c51 8ebd 3445 81be eeff 32bd
00000260: 7998 28bd 25fa 543d 0fbf 133d 4fba fcbd
00000270: 90b9 91bd de34 a8bc e8ee efbb f53a bbbd
00000280: 90f0 8c3d 36cf 343d b7e3 5b3d 7a24 26be
00000290: e08f 1b3d ef44 683c 621c d3bc 2ddb 93ba
000002a0: 7017 43bd e424 883d a976 55bd 5d54 dcbc
000002b0: 6271 1f3d 657f 90bd fa7a b8bd d548 29bd
000002c0: 45aa 48bd a31c 9dbd c84d a4bd 8adc 9cbd
000002d0: 4131 023d f422 88be 7c45 14bd b3a2 7bbd
000002e0: 3ac5 2cbc bb3e 3a3d 3199 67bd 5f0c ecbc
000002f0: 6924 dcbb 34ea 5f3c 4b2e 14bd b192 8a3d
00000300: c169 223c ddd1 aebd 8262 debd c2cd 853c
00000310: adee c7bc 835a a63c 39c2 a6bd b17a b83c
00000320: f31d adbd b61a e43c bb1c 1f3d f481 3a3d
00000330: 1487 483d 3892 95bb 6356 87bd e965 eaba
00000340: 058a 193c 1a52 8abd 66f6 31bd 8b30 53bc
00000350: 6927 42bd e94b 0cbd f54e b6bd cca0 b5bd
00000360: 25c3 a1bd 6baf fabc 0606 f6bd 884e 3b3d
00000370: 7a23 43bc 1c81 cabd d886 0c3d e399 543d
00000380: 5bde a23d 6595 383d 11d6 8ebc d3b1 2d3d
00000390: 623c c9bd a67f eabd 1e43 16bd a82f 14bc
000003a0: 6e46 8ebd eda1 cfbc c1e5 e7bd 0be9 c53b
000003b0: c00e 703d 5c56 71bd fafa eebd b6d9 f6bc
000003c0: aef1 8fbd ad95 6dbe 2be3 d5bb 9f61 173b
000003d0: 5782 81bc 3dfa 94be f90c c03c cbbf 953c
000003e0: 07cd 65bd a3e1 c6bd d0d1 193c 564f 62bd
000003f0: 7043 42bd 9b18 aabb b676 6dbd 3be4 abbd

decoder_output_layer.bias f4 [784]
-0.09047887 -0.113534726 -0.011012615 -0.0276198 -0.04944127 -0.007898929 0.02053563 -0.06432433
-0.036844537 -0.081697956 0.034192935 -0.10443207 0.0400686 -0.09525452 -0.013106864 -0.047252312
-0.094369024 -0.06410731 0.0053022653 0.019567307 0.035504736 -0.047746226 0.0012541586 -0.033153377
0.060523868 0.041874647 -0.0047900076 0.054288547 -0.02236757 -0.08743375 0.017879523 -0.027475124
0.032843553 -0.07431698 -0.015038608 -0.034937985 0.06663043 0.109570615 -0.036909495 -0.032318737
-0.06880128 -0.0051277457 -0.087051496 -0.17018713 -0.17999882 -0.22533199 -0.1243305 -0.14327367
0.058373414 0.0011238878 0.059416942 -0.043030914 0.012515056 0.012015908 -0.02579952 -0.07291742
0.004439102 0.03756699 -0.02409633 -0.070459805 -0.033822972 -0.08121349 -0.013658807 -0.07583599
-0.017908908 0.066832796 0.11702192 0.00894036 -0.041535374 0.0756453 0.122756384 -0.00807513
-0.12750614 -0.059318017 -0.019623056 0.013308463 -0.07415926 -0.07560348 -0.14253461 0.0013273412
0.01358749 0.039433658 0.049713686 0.054342028 -0.027962647 -0.026631491 -0.07303507 -0.0327184
-0.07373851 0.11129896 0.043016132 -0.035290174 0.10745749 0.10708719 0.17145358 -0.05902027
0.030537566 0.014054703 0.13640788 -0.21626078 -0.18456523 0.15029384 0.22340666 -0.025558695
-0.15988708 -0.11397652 -0.045080476 0.048976768 0.12165512 0.11038435 0.0034306399 -0.09710272
-0.082537755 0.05810338 -0.06186737 0.028224299 0.12896344 0.06891068 0.08080119 0.08456586
0.043511745 0.10017627 0.02319281 -0.13986118 0.026382672 0.2531632 0.32438684 0.006118503
-0.07605508 -0.014967229 -0.058539167 -0.19994123 -0.21501216 -0.081372075 0.07218389 0.18330139
0.11311737 -0.12681414 0.03838384 -0.08484366 0.04426122 0.048110403 -0.012938275 0.10140801
0.17210892 0.2928333 0.16888313 0.12304005 0.07022153 -0.0938314 -0.056623608 -0.111043625
-0.013298674 0.15445895 0.08949889 -0.1879218 -0.15006998 -0.13321537 -0.018794224 -0.18410209
-0.23948339 0.13067679 0.24771373 0.14832494 -0.029361242 -0.18900342 0.0075743017 -0.10884638
-0.008261506 0.017190719 -0.030738713 0.021822538 0.19628467 0.29998833 0.21892552 0.16956256
-0.056001317 -0.23450539 -0.21914795 -0.21459393 -0.19760717 -0.3842166 -0.31407347 -0.1656264
-0.22019675 -0.1522162 -0.028303497 -0.026255606 -0.08436077 0.06505996 -0.0399937 -0.18312351
-0.23697935 -0.22989775 -0.14191133 -0.066951394 -0.052780084 -0.07814918 -0.054498035 0.06470952
0.187132 0.048629656 0.09630227 0.025274402 0.032477956 0.0058837263 0.109404474 0.06080466
-0.0070435205 -0.22290467 -0.26585653 -0.20205261 0.07954181 0.17988792 0.13167939 0.17283635
0.17150567 0.092798814 -0.036453467 -0.16819549 -0.2483313 -0.21532826 -0.0071464074 -0.085729614
-0.060202114 0.0017686973 -0.09340636 0.23701699 0.25792867 0.00996202 0.0022912817 -0.15673019
-0.0019718197 -0.01161089 0.2864519 0.23347603 0.03693033 -0.07214398 0.046896897 -0.062056884
-0.094383545 -0.06948162 -0.07870675 0.039281704 0.086452715 0.012639359 0.10680859 0.23217274
-0.0747529 -0.014973533 -0.17701644 0.034186985 -0.09749786 -0.046075888 -0.010225567 0.30358657
00000000: fc4c b9bd e584 e8bd 416e 34bc eb42 e2bc
00000010: ee82 4abd 826a 01bc 563a a83c 79bc 83bd
00000020: 4cea 16bd 4251 a7bd e40d 0c3d 7be0 d5bd
00000030: f91e 243d cd14 c3bd 2cbe 56bc a48b 41bd
00000040: 8c44 c1bd b14a 83bd a0be ad3b 9e4b a03c
00000050: 6a6d 113d 8c91 43bd 9462 a43a d6cb 07bd
00000060: e0e7 773d c084 2b3d 7ff5 9cbb ab5d 5e3d
00000070: 323c b7bc 7710 b3bd 1478 923c 8313 e1bc
00000080: f686 063d 8033 98bd 7e64 76bc 221b 0fbd
00000090: 8975 883d 8f66 e03d 692e 17bd a760 04bd
000000a0: afe7 8cbd a606 a8bb 0e48 b2bd 8945 2ebe
000000b0: 9c51 38be 6ebd 66be fda0 febd 55b6 12be
000000c0: f618 6f3d 6b4f 933a 2e5f 733d 2f41 30bd
000000d0: f30b 4d3c 5fde 443c 8459 d3bc ba55 95bd
000000e0: e375 913b d8df 193d ab65 c5bc 3b4d 90bd
000000f0: f589 0abd 4253 a6bd 30c9 5fbc e64f 9bbd
00000100: b4b5 92bc a2df 883d 30a9 ef3d 967a 123c
00000110: ff20 2abd eceb 9a3d b367 fb3d 8d4d 04bc
00000120: f890 02be 73f7 72bd 88c0 a0bc bd0b 5a3c
00000130: cfe0 97bd ffd5 9abd 98f4 11be 2efa ad3a
00000140: 109e 5e3c 3085 213d 94a0 4b3d bf95 5e3d
00000150: ec11 e5bc 492a dabc 6993 95bd bb03 06bd
00000160: 3704 97bd b6f0 e33d af31 303d 6e8c 10bd
00000170: ac12 dc3d 8750 db3d 8791 2f3e 3dbf 71bd
00000180: eb29 fa3c b245 663c 82ae 0b3e 7773 5dbe
00000190: abfe 3cbe a1e6 193e b7c4 643e 7860 d1bc
000001a0: 70b9 23be 866c e9bd 4ea6 38bd dd9b 483d
000001b0: 5226 f93d 3111 e23d 96d4 603b cadd c6bd
000001c0: 8e09 a9bd cffd 6d3d a468 7dbd a536 e73c
000001d0: fe0e 043e 0b21 8d3d 187b a53d de30 ad3d
000001e0: 5f39 323d 3729 cd3d d9fe bd3c c537 0fbe
000001f0: 7920 d83c 9b9e 813e 0816 a63e b97d c83b
00000200: c4c2 9bbd 1c39 75bc c4c6 6fbd 65bd 4cbe
00000210: 262c 5cbe 67a6 a6bd 26d5 933d 5cb3 3b3e
00000220: 14aa e73d 91db 01be 6038 1d3d 83c2 adbd
00000230: 414b 353d 6a0f 453d 0ffb 53bc 01af cf3d
00000240: 523d 303e 3fee 953e b3ef 2c3e 6cfc fb3d
00000250: 4ed0 8f3d ad2a c0bd 28ee 67bd d76a e3bd
00000260: aee2 59bc 7d2a 1e3e 324b b73d 936e 40be
00000270: f2ab 19be 9c69 08be 58f6 99bc 4285 3cbe
00000280: 223b 75be 23d0 053e aba8 7d3e 7ee2 173e
00000290: fd86 f0bc 1d8a 41be d931 f83b daea debd
000002a0: 455b 07bc 8dd3 8c3c c1cf fbbc 2ec5 b23c
000002b0: d9fe 483e 1298 993e 032e 603e cfa1 2d3e
000002c0: a361 65bd 2e22 70be 5268 60be 83be 5bbe
000002d0: 8959 4abe 0ab8 c4be 3dce a0be f899 29be
000002e0: 427b 61be 90de 1bbe bcdc e7bc ff15 d7bc
000002f0: 57c5 acbd 283e 853d 6fd0 23bd bb84 3bbe
00000300: b7aa 72be 516a 6bbe 3451 11be d01d 89bd
00000310: ee2f 58bd ad0c a0bd 5539 5fbd 6d86 843d
00000320: 889f 3f3e e42f 473d 203a c53d 430c cf3c
00000330: 9b07 053d 46cc c03b 740f e03d 4f0e 793d
00000340: 55cd e6bb 1f41 64be 591e 88be e1e6 4ebe
00000350: d1e6 a23d 8a34 383e f6d6 063e 03fc 303e
00000360: 2f9f 2f3e 4e0d be3d 3b50 15bd 703b 2cbe
00000370: 8f4a 7ebe 037f 5cbe 692c eabb 0293 afbd
00000380: 7e96 76bd a2d3 e73a d54b bfbd 95b4 723e
00000390: 3a0f 843e be37 233c 5429 163b e17d 20be
000003a0: a539 01bb 9a3b 3ebc d3a9 923e 5714 6f3e
000003b0: 4244 173d 39c0 93bd f616 403d 5c2f 7ebd
000003c0: 294c c1bd 614c 8ebd 0131 a1bd dae5 203d
000003d0: 1f0e b13d 5015 4f3c 76be da3d b1be 6d3e
000003e0: 0c18 99bd 8d53 75bc cc43 35be a707 0c3d
000003f0: f5ac c7bd 12ba 3cbd 2389 27bc b36f 9b3e
